src/flows/results/kmm_kliep_synthetic_maf/best_model_checkpoint.pt (torch, 910772 bytes, 157 tensors)

base_dist_mean f4 [2]
00000000: 0000 0000 0000 0000
0.0 0.0

base_dist_var f4 [2]
00000000: 0000 803f 0000 803f
1.0 1.0

net.0.base_dist_mean f4 [2]
00000000: 0000 0000 0000 0000
0.0 0.0

net.0.base_dist_var f4 [2]
00000000: 0000 803f 0000 803f
1.0 1.0

net.0.net_input.weight f4 [100, 2]
00000000: ce28 2ebf e54d 29bd b9f2 a2be 5ed6 a4bd
00000010: 9dca 1ebf b65f 293e 7e59 21bf 7a03 2cba
00000020: dbde 803e 1baf fdbd 006f cb3e 9a63 413c
00000030: 6c21 c73e 13d4 a73e 095f 97be 3c1f 103e
00000040: a1cc a2be 1438 df3d 0d11 c2be 75ff 523e
00000050: 54dc 0f3e 34b3 22be e11b acbe 312e 9b3d
00000060: 1f4e 293f f0e5 5e3e 90b4 88bd e3f8 1eb9
00000070: f9d1 d03e 3dac babe 0249 823e ea40 f6bd
00000080: 80ab d13e 8db3 0bbe af48 053d be78 fe3d
00000090: e9fe f73e ff82 9cbc 7566 263f 924f f0be
000000a0: 66e9 02be d526 13bf 7b1f 173b f9cc b93d
000000b0: 0358 96be 80d5 323e 2166 f1bd 8d7d f8be
000000c0: d639 0a3f 9c05 9f3e b6e5 b83e a215 df3e
000000d0: 0801 873e 245c 813e c24f 153f 8a58 34bd
000000e0: 2e11 10bf c117 67be 1bb5 68bc d683 eebb
000000f0: 2498 f7bb 2cc8 8f3e c652 613e bb63 cabe
00000100: dfdf 7abe 6314 7fbd 1b19 db3e 6db2 0fbe
00000110: ec5a 9bbe 8d7e cabc 8c1a 5cbe 574f 8cbd
00000120: 79ce 31bf 962b 003f 4a77 c23e 8c48 5abe
00000130: 8b0b dcbe 9a8b b937 d92d cf3e 9fae c2be
00000140: 26b2 94be 82d4 343e 78c9 e6be fb60 fabb
00000150: 9224 09bf a0b1 063f ec7f ca3e 911f 06bf
00000160: 8b66 cbbe 6f3a 0a3e 7f70 9b39 b6c3 a23d
00000170: ed8b 15bf cda9 82be 3487 a53e 0397 d2be
00000180: c9b6 0cbe 1f69 433e 0208 c53e 28a5 173a
00000190: e21a 553e 77e0 463e 7fb8 14bc 53c9 acbd
000001a0: d02b 093f b226 0f3f d8bc a23e 91a0 41be
000001b0: d3cb 1dbf 4b55 11bf 96cf 793b dc93 1dbe
000001c0: 90de 54be d7f2 88bc efa6 2c3f 1055 0a3f
000001d0: 0ee8 7dbb 1e78 cebd b0c5 ad3e 2262 ffba
000001e0: 68fa 2fbf 5b49 ef3d 7763 2c3f 584f ddbe
000001f0: 0b9a 46be bc93 553d 1582 15bf 8eea f3be
00000200: 4679 063f 56f9 09be 445d d33e 4c7b 523b
00000210: 7515 343e 0797 b0be 7489 23be fb2f ae3e
00000220: 26e8 a83e de74 c0bd fa35 bf3d 41b2 d33e
00000230: e7d6 20bf 1917 a83e 2cae 41be e07a 38bd
00000240: 41af ad3e 35dd eabe 026f e6bd a4b7 0b3f
00000250: d945 833e b752 14be b7a5 10be f4de db3e
00000260: 9785 8a3e 319e b43e a7a7 e6be 226e bf3d
00000270: 085f 043e e7c0 fb3c a958 273f a1f9 883e
00000280: b33e fc3e 45f5 423e 3ec2 9b3e d058 fabc
00000290: 3440 23bf 7dd7 efbe e17d e5be 76e2 a9be
000002a0: f201 a83e 613f da3d d284 39be 6d53 d2be
000002b0: 7a0b 333f ebaa ce3e f8fd a93e 73d6 113f
000002c0: 905d c1be e686 8ebe 1d10 cebe 5db3 1cb9
000002d0: 351f 1fbf 88f1 dc3e 7539 8036 bd5f 6b3e
000002e0: b172 c7be 2afd babb 7aad bd3d 395e adbd
000002f0: 9d49 293f 3719 4fbe 3c17 603e a9d7 b4be
00000300: d6db b6bd c81d a3bd 3e1c 9a3e 37ec bb3e
00000310: faa6 393e e6bb 60bb d6c7 58be b73c da3e
-0.68031013 -0.04133405 -0.31825808 -0.080487 -0.62027913 0.16540417 -0.6302718 -0.00065617973
0.25170025 -0.12386914 0.39733124 0.011803532 0.38892686 0.32778987 -0.29564694 0.14074415
-0.31796744 0.10899368 -0.37903634 0.20605262 0.14048892 -0.15888673 -0.3361502 0.0757717
0.6613483 0.21767402 -0.066750646 -0.00015160772 0.40785196 -0.36459532 0.25446326 -0.120241
0.40951157 -0.13642712 0.03254002 0.124253735 0.4843667 -0.019105433 0.6500009 -0.46935707
-0.12784347 -0.5748113 0.0023059535 0.090722986 -0.29364023 0.17464256 -0.11787058 -0.48533288
0.539945 0.31058967 0.36112756 0.43571192 0.26367974 0.2526561 0.58324826 -0.04402975
-0.56276214 -0.22567655 -0.014203335 -0.0072788997 -0.0075559784 0.28082407 0.22004232 -0.39529213
-0.24499463 -0.0622753 0.4279259 -0.14032908 -0.30342805 -0.024718547 -0.21494502 -0.068510704
-0.6945568 0.50066507 0.37981635 -0.21316737 -0.42977557 2.2118726e-05 0.40464666 -0.3802385
-0.29042166 0.1765919 -0.45075583 -0.0076409555 -0.53571427 0.52614784 0.39550722 -0.52391917
-0.39726672 0.13498853 0.0002964772 0.07947485 -0.58416635 -0.25520173 0.32329714 -0.41130838
-0.13741602 0.1908307 0.38482672 0.0005784803 0.20811036 0.19421564 -0.00907719 -0.08436837
0.5358248 0.5591842 0.317847 -0.18908907 -0.61639136 -0.5677077 0.0038118116 -0.15388435
-0.20788026 -0.016717358 0.6744222 0.54036045 -0.0038743052 -0.10081504 0.33939886 -0.0019484202
-0.68741465 0.11683913 0.6733927 -0.43224597 -0.193947 0.052142844 -0.58401614 -0.4763989
0.525288 -0.1347402 0.41282094 0.0032116948 0.1758631 -0.34490225 -0.15970403 0.3402098
0.32989615 -0.09397291 0.09336467 0.41346934 -0.62827915 0.32830122 -0.18914098 -0.045039058
0.3392277 -0.45871893 -0.11251642 0.5457709 0.25639227 -0.14484678 -0.14125715 0.42943537
0.27055046 0.3527694 -0.45049784 0.09347178 0.12926877 0.030731631 0.6536966 0.26752952
0.49266586 0.19038875 0.30421633 -0.030559927 -0.6376984 -0.46844092 -0.448226 -0.33180588
0.32813984 0.1065662 -0.18117073 -0.41079274 0.69939387 0.40364775 0.33201575 0.5696785
-0.37766695 -0.27837294 -0.40246668 -0.00014944137 -0.62156993 0.43153024 3.821386e-06 0.2298574
-0.3895469 -0.005706449 0.09261604 -0.08465237 0.6612795 -0.20224462 0.21883863 -0.35320786
-0.08928649 -0.07964665 0.30099672 0.36703655 0.18130103 -0.0034291684 -0.21169981 0.42624447

net.0.net_input.bias f4 [100]
00000000: 391d 19be 2cc2 043f c4b9 a4be 5b59 193f
00000010: 270f 343f 9e56 f93e 68f4 d43e 65d7 8c3e
00000020: d250 acbe 6fe9 003d 8974 6e3e d3e0 4bbe
00000030: 67d1 033e a4c7 db3e c6ef 29bf 9c0a 1ebf
00000040: 181c cfbe 9933 c93d 039e 15be 203a 273e
00000050: ec24 2ebe 7a6b acbe 4e16 e63d 2fa1 f83e
00000060: 5556 d5be 2312 1a3f de14 363e 24e4 303f
00000070: 437c 23bf 5d00 0cbf b01e 813e 8d07 2bbf
00000080: 2d90 0cbf 2ffb b73e 455a b33e 639f 1bbf
00000090: 48d7 003f 50fc febd 6dcd 093f 9f31 e2be
000000a0: f9cb 26bf dcb1 f6be 683d d6bd eb7b 32bf
000000b0: 9f7e 38bd 3a20 6cbe 810a 18be b1f3 e0bb
000000c0: 1ca9 253d c9a1 2dbf f927 b93e 05bc 9dbe
000000d0: 653d d33e c6b9 273f 7fc0 72be 2490 963d
000000e0: 6bbd c43e 5e8f 52bd 6cfd ecbe ba53 9f3e
000000f0: 3253 b23e 2ba3 ccbe 21ed debe 0cbc e3bd
00000100: a459 253e d93d babe 4667 13bd be28 97be
00000110: e59d 92be 258c e0bd d2ca 81be 3257 123f
00000120: 1478 383e 7f73 273f af2a 233f fcfa f03d
00000130: 08f4 9dbe 9403 df3e 5a54 f1bc 3002 fd3e
00000140: 7942 0dbe 59af 1f3f 5c2d cb3d 23b7 13be
00000150: 5c81 f8be ef3f 0a3f 6111 c13d 4405 823e
00000160: 9dc9 9d3e 1c50 32bd f570 b9be ed2d ccbd
00000170: 5454 17bd 6b49 e53e 3ef3 52bd 5fbb 34be
00000180: a4e2 b6bd dadc 0d3e 2067 133f d1d8 013f
-0.14952554 0.5185878 -0.32172978 0.5990197 0.7033562 0.48698896 0.41592717 0.27508083
-0.3365541 0.03147262 0.23286642 -0.19909982 0.1287285 0.4292575 -0.6638149 -0.6173494
-0.4045112 0.098242946 -0.14611058 0.16330767 -0.17006272 -0.33675748 0.11234723 0.48560473
-0.4166743 0.60183924 0.17781398 0.69098115 -0.63861483 -0.54688054 0.25218725 -0.66808397
-0.54907495 0.35933825 0.35029808 -0.6079008 0.50328493 -0.124504685 0.5382908 -0.44178483
-0.6515499 -0.4818257 -0.10460931 -0.69720334 -0.04504263 -0.23059168 -0.14847757 -0.006864988
0.04044448 -0.6782499 0.3616331 -0.3080751 0.41257778 0.6551784 -0.23706244 0.073517114
0.38425764 -0.051406257 -0.46287096 0.31118566 0.34829098 -0.39968237 -0.4354029 -0.111198515
0.16147476 -0.3637531 -0.03598716 -0.2952327 -0.2863609 -0.109642304 -0.25350052 0.571643
0.18014556 0.6541061 0.63737005 0.117666215 -0.30850244 0.43557417 -0.029459167 0.4941573
-0.13794889 0.62376934 0.09920761 -0.1442533 -0.48536193 0.54003805 0.09427143 0.25394642
0.3081788 -0.04353343 -0.36218992 -0.09969697 -0.036945656 0.44782576 -0.051501505 -0.17649601
-0.08929947 0.1385378 0.5757923 0.5072146

net.0.net_input.mask f4 [100, 2]
00000000: 0000 803f 0000 0000 0000 803f 0000 0000
00000010: 0000 803f 0000 0000 0000 803f 0000 0000
00000020: 0000 803f 0000 0000 0000 803f 0000 0000
00000030: 0000 803f 0000 0000 0000 803f 0000 0000
00000040: 0000 803f 0000 0000 0000 803f 0000 0000
00000050: 0000 803f 0000 0000 0000 803f 0000 0000
00000060: 0000 803f 0000 0000 0000 803f 0000 0000
00000070: 0000 803f 0000 0000 0000 803f 0000 0000
00000080: 0000 803f 0000 0000 0000 803f 0000 0000
00000090: 0000 803f 0000 0000 0000 803f 0000 0000
000000a0: 0000 803f 0000 0000 0000 803f 0000 0000
000000b0: 0000 803f 0000 0000 0000 803f 0000 0000
000000c0: 0000 803f 0000 0000 0000 803f 0000 0000
000000d0: 0000 803f 0000 0000 0000 803f 0000 0000
000000e0: 0000 803f 0000 0000 0000 803f 0000 0000
000000f0: 0000 803f 0000 0000 0000 803f 0000 0000
00000100: 0000 803f 0000 0000 0000 803f 0000 0000
00000110: 0000 803f 0000 0000 0000 803f 0000 0000
00000120: 0000 803f 0000 0000 0000 803f 0000 0000
00000130: 0000 803f 0000 0000 0000 803f 0000 0000
00000140: 0000 803f 0000 0000 0000 803f 0000 0000
00000150: 0000 803f 0000 0000 0000 803f 0000 0000
00000160: 0000 803f 0000 0000 0000 803f 0000 0000
00000170: 0000 803f 0000 0000 0000 803f 0000 0000
00000180: 0000 803f 0000 0000 0000 803f 0000 0000
00000190: 0000 803f 0000 0000 0000 803f 0000 0000
000001a0: 0000 803f 0000 0000 0000 803f 0000 0000
000001b0: 0000 803f 0000 0000 0000 803f 0000 0000
000001c0: 0000 803f 0000 0000 0000 803f 0000 0000
000001d0: 0000 803f 0000 0000 0000 803f 0000 0000
000001e0: 0000 803f 0000 0000 0000 803f 0000 0000
000001f0: 0000 803f 0000 0000 0000 803f 0000 0000
00000200: 0000 803f 0000 0000 0000 803f 0000 0000
00000210: 0000 803f 0000 0000 0000 803f 0000 0000
00000220: 0000 803f 0000 0000 0000 803f 0000 0000
00000230: 0000 803f 0000 0000 0000 803f 0000 0000
00000240: 0000 803f 0000 0000 0000 803f 0000 0000
00000250: 0000 803f 0000 0000 0000 803f 0000 0000
00000260: 0000 803f 0000 0000 0000 803f 0000 0000
00000270: 0000 803f 0000 0000 0000 803f 0000 0000
00000280: 0000 803f 0000 0000 0000 803f 0000 0000
00000290: 0000 803f 0000 0000 0000 803f 0000 0000
000002a0: 0000 803f 0000 0000 0000 803f 0000 0000
000002b0: 0000 803f 0000 0000 0000 803f 0000 0000
000002c0: 0000 803f 0000 0000 0000 803f 0000 0000
000002d0: 0000 803f 0000 0000 0000 803f 0000 0000
000002e0: 0000 803f 0000 0000 0000 803f 0000 0000
000002f0: 0000 803f 0000 0000 0000 803f 0000 0000
00000300: 0000 803f 0000 0000 0000 803f 0000 0000
00000310: 0000 803f 0000 0000 0000 803f 0000 0000
1.0 0.0 1.0 0.0 1.0 0.0 1.0 0.0
1.0 0.0 1.0 0.0 1.0 0.0 1.0 0.0
1.0 0.0 1.0 0.0 1.0 0.0 1.0 0.0
1.0 0.0 1.0 0.0 1.0 0.0 1.0 0.0
1.0 0.0 1.0 0.0 1.0 0.0 1.0 0.0
1.0 0.0 1.0 0.0 1.0 0.0 1.0 0.0
1.0 0.0 1.0 0.0 1.0 0.0 1.0 0.0
1.0 0.0 1.0 0.0 1.0 0.0 1.0 0.0
1.0 0.0 1.0 0.0 1.0 0.0 1.0 0.0
1.0 0.0 1.0 0.0 1.0 0.0 1.0 0.0
1.0 0.0 1.0 0.0 1.0 0.0 1.0 0.0
1.0 0.0 1.0 0.0 1.0 0.0 1.0 0.0
1.0 0.0 1.0 0.0 1.0 0.0 1.0 0.0
1.0 0.0 1.0 0.0 1.0 0.0 1.0 0.0
1.0 0.0 1.0 0.0 1.0 0.0 1.0 0.0
1.0 0.0 1.0 0.0 1.0 0.0 1.0 0.0
1.0 0.0 1.0 0.0 1.0 0.0 1.0 0.0
1.0 0.0 1.0 0.0 1.0 0.0 1.0 0.0
1.0 0.0 1.0 0.0 1.0 0.0 1.0 0.0
1.0 0.0 1.0 0.0 1.0 0.0 1.0 0.0
1.0 0.0 1.0 0.0 1.0 0.0 1.0 0.0
1.0 0.0 1.0 0.0 1.0 0.0 1.0 0.0
1.0 0.0 1.0 0.0 1.0 0.0 1.0 0.0
1.0 0.0 1.0 0.0 1.0 0.0 1.0 0.0
1.0 0.0 1.0 0.0 1.0 0.0 1.0 0.0

net.0.net.1.weight f4 [100, 100]
00000000: 41ba 48bb abb3 5f3c 82cc c13d b054 363d
00000010: 1d66 9cbc f773 603d 619d 293d d950 d7bc
00000020: db96 523d 2aec 213c ab7b 2fbd 98e9 6dbb
00000030: 2113 bd3d 3ab9 343c 4240 99bd 7131 963d
00000040: 6c5a cb3c a8d8 283d ff13 a739 8dd1 1a3d
00000050: 858d 3b3d 3585 373c 709e 5d3d 592d 83bd
00000060: b6ff 5e3d 51e1 41bc 5ae9 803d 97bf 21bd
00000070: 16d7 8abc 0cd6 593c d143 8539 61f5 813c
00000080: 800d 893c 9b35 3f3b 89b0 9b3b 0550 95bd
00000090: 1060 c73d 42e0 c33d 0000 8cbd 7caa e73c
000000a0: 50ff b23d eb58 ed3c 7424 3b3d b8b1 ab3d
000000b0: e5c1 373d e05d 77b6 4124 a4bd cfad 45bd
000000c0: 7408 6fbd 5a54 3c3c b982 9dbd a68a 563b
000000d0: 7613 853c ff4c 4dbd 72ba 5fbd 1fb4 973c
000000e0: e9ca cdbc 841e 953c 300f 0634 79b2 0d3c
000000f0: fe08 51bc 0e9d 97bc 1d50 7bbc dcbf 283d
00000100: 1e53 88bd bbc3 9d3b bde7 28bd bddf a8bd
00000110: eaec fa3c 8b1f 0d3d a27e bd3d f3c6 4e3d
00000120: cea4 c23d 2b8a c8bd 5469 c2bd 2f10 023d
00000130: a92a 593d 47e4 363d 1582 87bd 9b36 993d
00000140: 7413 b2bd 6bbe 9f3c 33d9 15bd faf2 05bd
00000150: 6140 ae3d 0e85 973d 1451 183d 8cd1 293d
00000160: 9caf 963b d4f4 71bd c4de f83c 0511 2b3c
00000170: 113f 353d 21d9 cdbd 54fd b3bc d15a 0c3d
00000180: 5966 01bc d98e 09bd 6351 c6bd 2ff4 9d3a
00000190: ea9a fc3c b7e5 9dbd bc3e bd3c c921 2a3d
000001a0: a89e 2c3d dc14 863d 5595 71bd fd85 333d
000001b0: 2269 563c 5bfe bdbc d425 8bbb be62 d23d
000001c0: 27fa 77bb 0b2d 85bc 9dac 1aba 2045 73ba
000001d0: 619c a2bd 6242 93bc f92e 2f3d fa36 63bc
000001e0: 3dd2 c9bc 8861 e139 4aff 843d a09f e6bb
000001f0: 45b9 25bd c808 9c3c 3992 66bd 9166 973d
00000200: 45ff d1bc 3179 0eb9 37fe cd3d 6048 ebbb
00000210: 5e23 763c 7004 b73d 15e6 09bd ff7c b73c
00000220: ca0a db3d 2cfe 2dbd 0430 733d 9a8e b93c
00000230: 54da 6d3d 69ca a5bd 3282 78bd 4b3b a4bd
00000240: 9027 c1bd 7950 41b8 2c32 843c b296 c5bd
00000250: 599b a6bd 3e90 7e3b e1a7 0ebd 4034 8b36
00000260: 0b63 9f3c ac38 d23d 4271 b43a 2329 96bd
00000270: de91 58bd ced2 cfbd 5021 86b6 0218 303c
00000280: 6961 333d 7b9e 073c 572e 883d 5fa5 923c
00000290: 086b 67bc 4e8d 80bd 933c 673c df35 7d3c
000002a0: ddf7 3cbd 289f 563d 4b14 bebd 1463 2c3d
000002b0: a489 74bd 9c66 823d 8149 a93d 7012 a83d
000002c0: 9d80 a33c 7c44 14bd 3d75 00bd b142 f0bc
000002d0: ed29 423b f8ab 37bd 8086 633d fb49 813d
000002e0: 5af2 80bd bcb2 84bc 7a8a 9fbd a756 69bd
000002f0: 2179 1bbd 3ede 973d 07eb a6bd a6e3 9138
00000300: 94ce c03d 6c08 77bd 9397 c7bd 558e 1a3d
00000310: a702 853d c787 1a3d 8407 ac3d 7290 9a3d
00000320: 2063 98bc 0237 6b3d 5af9 57bd 84e8 043d
00000330: 3c6b 87bd 9c7c 973c 32ad 4d3d e64c e13c
00000340: c71e 523d dc01 9ebc 7906 f53c 17b9 273c
00000350: e3a8 a43d 7b02 513d c7fc acbd c7dc e93c
00000360: cdb0 413d ce9d b53c bacd 5cbd 0673 c13d
00000370: 5c77 8fbd 98c1 0cbc f845 c73c 3247 223d
00000380: 41b6 383b 7d1f 47ba e01e 1e3d 5cf5 883d
00000390: 4bea 4fbd d08f be38 e6c0 56bd 758e 5fbd
000003a0: 2b4e 38bd aa99 9fbd dbc1 923d 39cc 09bc
000003b0: 51cf 1abd aa26 c4bb fe71 a1bd 5e40 703d
000003c0: c921 eabc d724 4e3d 9b57 d33c d53c e6bd
000003d0: b6c4 c3bd 6cbb 80bc 9078 b13d 66fc b43d
000003e0: 8d16 d43c 2d9d 60bd f7ce e73c 12e5 d6bb
000003f0: 248a 513c 165d 97bc 9070 863d 4297 a4bb
-0.0030628594 0.013653676 0.09462835 0.044514358 -0.01909166 0.054798093 0.041409854 -0.026283668
0.0514134 0.009882966 -0.04284255 -0.0036302563 0.09232164 0.01103049 -0.07482959 0.07333649
0.02482339 0.041222245 0.0003186762 0.0377975 0.04578926 0.011201193 0.054106176 -0.06405134
0.054443084 -0.011833505 0.06294508 -0.039489355 -0.016948264 0.013295662 0.00025418264 0.015864076
0.01673007 0.0029176238 0.0047512692 -0.07290653 0.09735119 0.09564258 -0.068359375 0.028279535
0.08740103 0.028973063 0.04568906 0.083835065 0.044862647 -3.686051e-06 -0.080147274 -0.04826146
-0.05835767 0.01149472 -0.07690949 0.003273645 0.016244631 -0.050122257 -0.054621167 0.018518506
-0.02512117 0.018203028 1.2485248e-07 0.008648508 -0.012758492 -0.018507507 -0.015338925 0.041198596
-0.06656478 0.0048145927 -0.041236628 -0.082458 0.030630548 0.03445391 0.09252669 0.0504827
0.0950409 -0.097919784 -0.09492746 0.031753715 0.0530192 0.044651296 -0.06616608 0.07481118
-0.08695117 0.019499978 -0.03658409 -0.032702424 0.08508373 0.07398425 0.037186697 0.041459605
0.004598571 -0.059071377 0.03037966 0.0104410695 0.044249598 -0.1005118 -0.021971382 0.034266297
-0.007897937 -0.033583496 -0.09683492 0.0012050922 0.030835588 -0.0770983 0.023101203 0.041536126
0.042143494 0.06546947 -0.058980305 0.043828953 0.013086589 -0.023192575 -0.004246453 0.1027274
-0.0037838311 -0.01625683 -0.0005900355 -0.0009280015 -0.07939983 -0.01797599 0.042769406 -0.013868088
-0.024636382 0.0004298801 0.06494005 -0.0070380718 -0.04045989 0.019047156 -0.056291793 0.0739261
-0.025634417 -0.00013587323 0.10058253 -0.0071802586 0.015023081 0.08936393 -0.03366669 0.02239847
0.10695417 -0.042478725 0.059371963 0.022651006 0.058069542 -0.08095247 -0.06067104 -0.08019122
-0.09431374 -4.608973e-05 0.016137205 -0.096478835 -0.08135099 0.00388433 -0.03482807 4.1486055e-06
0.019456407 0.102647156 0.0013766664 -0.07332065 -0.052873485 -0.1014763 -3.9973893e-06 0.010747911
0.04379407 0.008277531 0.066494636 0.01790112 -0.014124639 -0.06276952 0.014113563 0.015454738
-0.04613482 0.052397877 -0.09281214 0.042086676 -0.059701577 0.063672274 0.08265973 0.08206642
0.019958789 -0.036198124 -0.031361807 -0.029328676 0.002962704 -0.044841737 0.05554819 0.06312939
-0.06296225 -0.016198508 -0.07790084 -0.056967404 -0.037957314 0.07415436 -0.08150297 6.9565416e-05
0.09414402 -0.060310766 -0.09745707 0.037733395 0.064946465 0.037727144 0.08399871 0.07547082
-0.018601954 0.057425506 -0.052728035 0.032448307 -0.0661225 0.018492036 0.050214 0.027502488
0.051298883 -0.019287996 0.029910313 0.010237 0.08040025 0.051027756 -0.08446651 0.028547658
0.04728775 0.022169974 -0.053907134 0.09445767 -0.07005188 -0.008591078 0.024325356 0.03961868
0.0028184804 -0.00075959397 0.038603663 0.066874236 -0.05076055 9.086693e-05 -0.052430056 -0.054579217
-0.04499642 -0.07792981 0.07165881 -0.008410507 -0.03779537 -0.0059860544 -0.078830704 0.058655135
-0.028580563 0.050328102 0.02579861 -0.112420715 -0.09559004 -0.01571437 0.086655736 0.08837204
0.02588966 -0.054837395 0.02829693 -0.006558069 0.012789283 -0.018477004 0.06564438 -0.005022914

net.0.net.1.bias f4 [100]
00000000: 1b82 1abd 90f3 bc3c da45 b2bd 11d4 3e3c
00000010: 4a7a 8d3d 39ba d73c 4a70 893d f8e1 02bc
00000020: 7e30 ce3d f6e6 043c e594 22bd 2d2d cfbc
00000030: 4606 a03c 3bd6 65bd 3b9e adbd 2010 cbbd
00000040: 38c0 933d 7e99 15bd 4d8c 98bc 54d6 a43d
00000050: ecfe 71bc 0454 bbbc 9ada 083d 06e5 58bd
00000060: 8c85 d63d 0a1f a83d 8917 6dbd d05e 23bd
00000070: c031 ca3d d946 2abd ee4a 833d fb4f 563d
00000080: 56cf 0b3c 5415 c5bd 67fc de3b a92a 3238
00000090: 9be5 be3d 40a3 353d cfea cf3d 746f bf3d
000000a0: 1e14 7abd 0e2e a83d 2bdf a93d 9b74 6abc
000000b0: 2732 babd c037 223d fed0 b3bd b0ca a33b
000000c0: 250e a7bb e526 333d 50eb 53bd b0d7 af3d
000000d0: a2e6 4c3c 1152 44bb c608 92bc 9b58 033d
000000e0: 3c0e a9bd 5d0a 383c b4b6 e3ba 8f29 8c3c
000000f0: 8862 68bc 1ab2 fabc ae72 9cbd beac bc3d
00000100: 6914 95bc 9a31 7c3d 9063 f43d ae01 6dbd
00000110: 57de b3bd de1d a93b ab28 bd3d b949 01bc
00000120: 5b19 8bbc 8fad 203d c216 403d b968 adbb
00000130: d6db 7bbd 2432 06bc bf88 aa3c d328 b73c
00000140: a912 83bb 466a 143c 1d16 88af 335c 0b3d
00000150: bb79 7a34 8e78 c8bd 8e2e 993b 952a bb3c
00000160: 37fb 07bc a2f2 803d 11c9 8eba dac4 babd
00000170: e89d dcbb 8099 1b3c d40a 9f3d 8b4d dabd
00000180: 94e4 aa3d e82e c93d 3152 db3c f9b4 d8ba
-0.037721734 0.023065358 -0.087047294 0.01164724 0.069080904 0.026333915 0.067108706 -0.007988445
0.10067843 0.008111706 -0.03969278 -0.025290096 0.019534241 -0.05611251 -0.08477446 -0.09915185
0.07214397 -0.036523335 -0.018621588 0.08048692 -0.014770251 -0.02286721 0.0334116 -0.05295279
0.10474691 0.08209045 -0.057883773 -0.039885342 0.0987277 -0.04157147 0.06410776 0.05232237
0.008533319 -0.09623209 0.006804991 4.2478237e-05 0.093211375 0.04434514 0.10152208 0.0934743
-0.06105434 0.08211909 0.08294519 -0.0143100275 -0.09091597 0.03960395 -0.087800965 0.0049985275
-0.0050981217 0.043738265 -0.051738083 0.08586061 0.012506159 -0.0029956142 -0.01782645 0.032066923
-0.08254668 0.01123294 -0.0017373175 0.01710966 -0.014183648 -0.030602504 -0.07639061 0.092126355
-0.018198209 0.06157074 0.119330525 -0.05786293 -0.08782642 0.005161031 0.092362724 -0.007891112
-0.016979864 0.03922802 0.046896704 -0.005292025 -0.06148895 -0.008190665 0.020817159 0.022358334
-0.004000027 0.009058541 -2.4753968e-10 0.034023475 2.332735e-07 -0.09788619 0.004674739 0.022847453
-0.00829964 0.062962785 -0.0010893663 -0.09119578 -0.006732691 0.0094970465 0.07765737 -0.106593214
0.08344379 0.098234 0.02677259 -0.0016533426

net.0.net.1.mask f4 [100, 100]
00000000: 0000 803f 0000 803f 0000 803f 0000 803f
00000010: 0000 803f 0000 803f 0000 803f 0000 803f
00000020: 0000 803f 0000 803f 0000 803f 0000 803f
00000030: 0000 803f 0000 803f 0000 803f 0000 803f
00000040: 0000 803f 0000 803f 0000 803f 0000 803f
00000050: 0000 803f 0000 803f 0000 803f 0000 803f
00000060: 0000 803f 0000 803f 0000 803f 0000 803f
00000070: 0000 803f 0000 803f 0000 803f 0000 803f
00000080: 0000 803f 0000 803f 0000 803f 0000 803f
00000090: 0000 803f 0000 803f 0000 803f 0000 803f
000000a0: 0000 803f 0000 803f 0000 803f 0000 803f
000000b0: 0000 803f 0000 803f 0000 803f 0000 803f
000000c0: 0000 803f 0000 803f 0000 803f 0000 803f
000000d0: 0000 803f 0000 803f 0000 803f 0000 803f
000000e0: 0000 803f 0000 803f 0000 803f 0000 803f
000000f0: 0000 803f 0000 803f 0000 803f 0000 803f
00000100: 0000 803f 0000 803f 0000 803f 0000 803f
00000110: 0000 803f 0000 803f 0000 803f 0000 803f
00000120: 0000 803f 0000 803f 0000 803f 0000 803f
00000130: 0000 803f 0000 803f 0000 803f 0000 803f
00000140: 0000 803f 0000 803f 0000 803f 0000 803f
00000150: 0000 803f 0000 803f 0000 803f 0000 803f
00000160: 0000 803f 0000 803f 0000 803f 0000 803f
00000170: 0000 803f 0000 803f 0000 803f 0000 803f
00000180: 0000 803f 0000 803f 0000 803f 0000 803f
00000190: 0000 803f 0000 803f 0000 803f 0000 803f
000001a0: 0000 803f 0000 803f 0000 803f 0000 803f
000001b0: 0000 803f 0000 803f 0000 803f 0000 803f
000001c0: 0000 803f 0000 803f 0000 803f 0000 803f
000001d0: 0000 803f 0000 803f 0000 803f 0000 803f
000001e0: 0000 803f 0000 803f 0000 803f 0000 803f
000001f0: 0000 803f 0000 803f 0000 803f 0000 803f
00000200: 0000 803f 0000 803f 0000 803f 0000 803f
00000210: 0000 803f 0000 803f 0000 803f 0000 803f
00000220: 0000 803f 0000 803f 0000 803f 0000 803f
00000230: 0000 803f 0000 803f 0000 803f 0000 803f
00000240: 0000 803f 0000 803f 0000 803f 0000 803f
00000250: 0000 803f 0000 803f 0000 803f 0000 803f
00000260: 0000 803f 0000 803f 0000 803f 0000 803f
00000270: 0000 803f 0000 803f 0000 803f 0000 803f
00000280: 0000 803f 0000 803f 0000 803f 0000 803f
00000290: 0000 803f 0000 803f 0000 803f 0000 803f
000002a0: 0000 803f 0000 803f 0000 803f 0000 803f
000002b0: 0000 803f 0000 803f 0000 803f 0000 803f
000002c0: 0000 803f 0000 803f 0000 803f 0000 803f
000002d0: 0000 803f 0000 803f 0000 803f 0000 803f
000002e0: 0000 803f 0000 803f 0000 803f 0000 803f
000002f0: 0000 803f 0000 803f 0000 803f 0000 803f
00000300: 0000 803f 0000 803f 0000 803f 0000 803f
00000310: 0000 803f 0000 803f 0000 803f 0000 803f
00000320: 0000 803f 0000 803f 0000 803f 0000 803f
00000330: 0000 803f 0000 803f 0000 803f 0000 803f
00000340: 0000 803f 0000 803f 0000 803f 0000 803f
00000350: 0000 803f 0000 803f 0000 803f 0000 803f
00000360: 0000 803f 0000 803f 0000 803f 0000 803f
00000370: 0000 803f 0000 803f 0000 803f 0000 803f
00000380: 0000 803f 0000 803f 0000 803f 0000 803f
00000390: 0000 803f 0000 803f 0000 803f 0000 803f
000003a0: 0000 803f 0000 803f 0000 803f 0000 803f
000003b0: 0000 803f 0000 803f 0000 803f 0000 803f
000003c0: 0000 803f 0000 803f 0000 803f 0000 803f
000003d0: 0000 803f 0000 803f 0000 803f 0000 803f
000003e0: 0000 803f 0000 803f 0000 803f 0000 803f
000003f0: 0000 803f 0000 803f 0000 803f 0000 803f
1.0 1.0 1.0 1.0 1.0 1.0 1.0 1.0
1.0 1.0 1.0 1.0 1.0 1.0 1.0 1.0
1.0 1.0 1.0 1.0 1.0 1.0 1.0 1.0
1.0 1.0 1.0 1.0 1.0 1.0 1.0 1.0
1.0 1.0 1.0 1.0 1.0 1.0 1.0 1.0
1.0 1.0 1.0 1.0 1.0 1.0 1.0 1.0
1.0 1.0 1.0 1.0 1.0 1.0 1.0 1.0
1.0 1.0 1.0 1.0 1.0 1.0 1.0 1.0
1.0 1.0 1.0 1.0 1.0 1.0 1.0 1.0
1.0 1.0 1.0 1.0 1.0 1.0 1.0 1.0
1.0 1.0 1.0 1.0 1.0 1.0 1.0 1.0
1.0 1.0 1.0 1.0 1.0 1.0 1.0 1.0
1.0 1.0 1.0 1.0 1.0 1.0 1.0 1.0
1.0 1.0 1.0 1.0 1.0 1.0 1.0 1.0
1.0 1.0 1.0 1.0 1.0 1.0 1.0 1.0
1.0 1.0 1.0 1.0 1.0 1.0 1.0 1.0
1.0 1.0 1.0 1.0 1.0 1.0 1.0 1.0
1.0 1.0 1.0 1.0 1.0 1.0 1.0 1.0
1.0 1.0 1.0 1.0 1.0 1.0 1.0 1.0
1.0 1.0 1.0 1.0 1.0 1.0 1.0 1.0
1.0 1.0 1.0 1.0 1.0 1.0 1.0 1.0
1.0 1.0 1.0 1.0 1.0 1.0 1.0 1.0
1.0 1.0 1.0 1.0 1.0 1.0 1.0 1.0
1.0 1.0 1.0 1.0 1.0 1.0 1.0 1.0
1.0 1.0 1.0 1.0 1.0 1.0 1.0 1.0
1.0 1.0 1.0 1.0 1.0 1.0 1.0 1.0
1.0 1.0 1.0 1.0 1.0 1.0 1.0 1.0
1.0 1.0 1.0 1.0 1.0 1.0 1.0 1.0
1.0 1.0 1.0 1.0 1.0 1.0 1.0 1.0
1.0 1.0 1.0 1.0 1.0 1.0 1.0 1.0
1.0 1.0 1.0 1.0 1.0 1.0 1.0 1.0
1.0 1.0 1.0 1.0 1.0 1.0 1.0 1.0

net.0.net.3.weight f4 [4, 100]
00000000: 8ece 81b9 e25e c9bb fd9e 0abb e4b8 3dba
00000010: e252 5cb8 44d4 d833 d71d c836 50cc 3c3c
00000020: 0be9 023c 06a6 52b7 9a9f 013b aa16 783a
00000030: 2a34 9038 1a2c 42bc 2ba3 233b 65fd b6ba
00000040: f037 71bb 9e93 be34 7e1d dfbb 6c31 bc34
00000050: ca08 623b 4828 7e3c aea2 8234 a91c 533c
00000060: 4401 293b 134a e8bb 15ab 693c 7671 c2bb
00000070: 5599 c2bb 807e 1936 dc55 5f3a 09d5 a7bb
00000080: c497 263c aaf8 52ba e99e 5f3c 4156 18ba
00000090: 6762 9d37 931f a4bb e96d 59b8 3fd4 493c
000000a0: 766f a735 f6b3 363c a0df 1631 fd66 cc39
000000b0: 9d98 c0ba afa0 463c 0f5f 973a bbb9 6dba
000000c0: ac4f 0e3b 2b85 f8bb e17c 3638 6103 81ba
000000d0: 98e3 8035 f492 1a39 4350 05bc 7743 653c
000000e0: 2711 8b36 91a4 9236 f9ac cfb4 e928 abb7
000000f0: 25a8 3dbb 3f95 e1bb cbfd afbb 53c9 5e3a
00000100: c5a6 5a38 b33b a931 a86d 47bb 0005 ea37
00000110: 30e3 0439 9f2d f5b6 0e49 d53b 2d4b 283c
00000120: 265e 46bb ef4b c6bb 26e4 7d39 7fa7 39bc
00000130: 1c03 303a d961 473a 9599 a8bb eb7c cf3b
00000140: 37b7 43bc d935 f538 3ec2 8e3a e679 2d3a
00000150: dc6f cfba 35ea 92b0 6220 7d3a b007 feb9
00000160: 5125 55bb 7723 093c 1412 17b3 ee31 e63a
00000170: 0852 7c3c bde7 0e37 94ba cfb9 363b da3b
00000180: 645d 7dbb b9f4 4f3c 6d29 163c 1114 82ba
00000190: b1e7 3abd 2db4 4b3d 618d 043b d25c 0d3b
000001a0: 4e11 5b3d 3d77 a93d 1363 9e3d d60d d43c
000001b0: d873 81bd f625 bdbd ca3d d43d a03d c1bd
000001c0: 3298 af3d a971 68bd 8dfa 84bb 2339 9e3d
000001d0: e886 8a3d c57a 85bd 1402 383d 4fe4 8b3d
000001e0: e3f5 113c df93 8e3d e657 9ebd 0d82 c6bd
000001f0: 373c 833d a214 013d e66f 81bd 2a50 b4bd
00000200: 6876 a4bd b624 8fbd c6f2 b53d 60be 853d
00000210: 0d11 5fbd 7efb 963d 687e a03c ba18 0539
00000220: 7a05 f5bd ed66 6c3c cad0 a4bc a5bd 1ebd
00000230: 3432 c3bc 7d59 233d e291 61bd 6798 0f37
00000240: c596 ccbd 2368 86bd e8a1 cabd f281 57bc
00000250: 6423 49b9 4920 9f3d 1089 79bd c749 a63c
00000260: 0cd5 b4bd 75d2 24b9 f802 703d 9357 b4bb
00000270: d4af 83bc 136f aebd cc34 16bb 045b b7ba
00000280: 1ecd d6b7 324f c7bc 53cb cebd f612 943c
00000290: 5a87 bf3d 5cc0 aa3d 8067 2cbd 6cff ad3d
000002a0: e78a 44bd 9e08 b2bd f035 99ba db52 ce3b
000002b0: c680 b6bd ab04 d93a cea8 d63d ef94 93b3
000002c0: 8ca5 ed3c 85bd 5538 fe5d 203c fbd8 8f3c
000002d0: db4c af3d b245 7f3d adf4 84bc 9d0d 97bd
000002e0: 66e1 0531 39fb 943c 45be 41bc 60a4 f83c
000002f0: 12b3 883d d9fb ad3d 8da3 0cb9 0910 a13d
00000300: d365 913a 78d7 96bd 54be 9cbd c2cb ac3d
00000310: 7319 09bd bf85 37bd 3ca6 0cbd b8ad 32bb
00000320: 53ef 25b6 0a7f 1fba d20d 12b9 6097 fdb9
00000330: 6309 88bb 420d c5b7 afd0 72bb 5073 7abc
00000340: 2f16 f2b4 9643 6fb9 0123 bdba 6084 203c
00000350: 5e76 d639 da38 5dbb fad4 86ba 44fb 0cbc
00000360: aa22 6cbc 4a32 b3bb ed06 83bb 5ed7 3a33
00000370: 1d1d 622f b90e 603b 99c7 2039 8978 e1bb
00000380: 3191 2cbc 9633 2b3b 716f d037 f9dc af3b
00000390: 5a59 e4ba 144b 9439 0922 7cbc 0580 8cae
000003a0: 7c7b 60ba d4b6 7a3b ff88 16b4 4269 76bc
000003b0: 51b0 7abc bef7 f234 3f63 8c35 cb3f 2ab2
000003c0: e4d4 d838 12de 30b7 a389 54b0 a35c 833c
000003d0: b0e2 803c 2c31 25ba 1f9f ab35 6970 f83a
000003e0: 1194 6131 1694 b73a c957 433a c8a8 d1ba
000003f0: 7c70 4d3b 633a b437 ebc9 88b4 be2e 2338
-0.00024758693 -0.006145344 -0.0021151893 -0.00072373287 -5.2529278e-05 1.0096895e-07 5.9639383e-06 0.011523321
0.007990132 -1.2555631e-05 0.0019778968 0.00094638264 6.8761714e-05 -0.011851335 0.0024969082 -0.0013961016
-0.0036807023 3.5497663e-07 -0.0068089357 3.5053688e-07 0.0034490102 0.0155125335 2.4332752e-07 0.012885251
0.0025788108 -0.0070889085 0.014261981 -0.0059339358 -0.0059386888 2.287241e-06 0.0008519569 -0.0051218313
0.01016802 -0.0008047918 0.013648727 -0.00058111927 1.876168e-05 -0.0050086468 -5.1839193e-05 0.01231867
1.2474909e-06 0.0111513045 2.195499e-09 0.00038986644 -0.001469392 0.012123271 0.0011548715 -0.00090685085
0.0021714969 -0.0075842342 4.3508484e-05 -0.0009842926 9.602982e-07 0.00014741329 -0.008136812 0.013993136
4.1445196e-06 4.370297e-06 -3.868261e-07 -2.0403839e-05 -0.0028939333 -0.0068842466 -0.0053708307 0.00084986276
5.2130566e-05 4.9253344e-09 -0.003043035 2.7897302e-05 0.00012673135 -7.30688e-06 0.006508953 0.01027183
-0.003026852 -0.0060515325 0.00024212952 -0.011331438 0.00067143305 0.0007605828 -0.0051452615 0.00633203
-0.011945537 0.0001169254 0.0010891629 0.00066175906 -0.0015826183 -1.0689464e-09 0.00096560095 -0.00048452383
-0.0032523463 0.008370272 -3.517387e-08 0.0017562488 0.015400417 8.517815e-06 -0.00039621128 0.0066598905
-0.0038660401 0.012692624 0.00916515 -0.0009924193 -0.045631114 0.049732376 0.002022587 0.0021570218
0.0534833 0.08274696 0.07733741 0.025885504 -0.063209236 -0.09235756 0.10363348 -0.09435582
0.08573951 -0.05674902 -0.0040581883 0.07725742 0.067640126 -0.06517557 0.044923857 0.06830656
0.008908722 0.06961798 -0.07731609 -0.09692774 0.064079694 0.031513818 -0.06320171 -0.088043526
-0.08030397 -0.06989424 0.08884196 0.06530452 -0.05445962 0.07372187 0.019591525 0.0001269308
-0.11963935 0.014428836 -0.02011909 -0.038755078 -0.02382765 0.039880265 -0.055070765 8.558948e-06
-0.099896945 -0.06562831 -0.098941624 -0.01315354 -0.00019182038 0.0776983 -0.06092173 0.020298852
-0.08829698 -0.0001571866 0.05859658 -0.0055036037 -0.016075052 -0.085172795 -0.0022919653 -0.0013988917
-2.5606303e-05 -0.024329755 -0.10097375 0.018075448 0.09351988 0.08337471 -0.042090893 0.084959835
-0.04798403 -0.0869305 -0.0011689048 0.0062964982 -0.0891128 0.0016557177 0.10481416 -6.872312e-08
0.029009603 5.095966e-05 0.0097880345 0.017559519 0.08559581 0.062322326 -0.016229952 -0.073756434
1.9482171e-09 0.018186199 -0.011825149 0.030351818 0.0667478 0.08495302 -0.00013412368 0.078643866
0.0011092968 -0.07365316 -0.0765349 0.08437301 -0.033471536 -0.044805285 -0.03433822 -0.002726419
-2.472622e-06 -0.0006084299 -0.00013928793 -0.00048368704 -0.0041515096 -2.3490404e-05 -0.0037050655 -0.015286282
-4.5092153e-07 -0.00022817994 -0.0014429988 0.009797186 0.0004090545 -0.003375581 -0.0010286861 -0.008604828
-0.014412561 -0.0054686414 -0.0039986284 4.3502375e-08 2.0564923e-10 0.0034188463 0.00015333145 -0.006880824
-0.010532663 0.0026123277 2.4847426e-05 0.005366918 -0.0017421648 0.00028284697 -0.015388974 -6.389204e-11
-0.00085633225 0.0038255947 -1.4019678e-07 -0.015039744 -0.015300826 4.525627e-07 1.0459697e-06 -9.909807e-09
0.000103393366 -1.0542122e-05 -7.7320744e-10 0.016035384 0.015733093 -0.00063015777 1.2786803e-06 0.0018954399
3.2825975e-09 0.0014005925 0.00074517407 -0.0015995735 0.0031347563 2.148486e-05 -2.547889e-07 3.890576e-05

net.0.net.3.bias f4 [4]
00000000: 6e8d 043a 3318 17bd df2b 043e 2ed2 e43d
0.0005056475 -0.036888313 0.1290736 0.11172901

net.0.net.3.mask f4 [4, 100]
00000000: 0000 0000 0000 0000 0000 0000 0000 0000
00000010: 0000 0000 0000 0000 0000 0000 0000 0000
00000020: 0000 0000 0000 0000 0000 0000 0000 0000
00000030: 0000 0000 0000 0000 0000 0000 0000 0000
00000040: 0000 0000 0000 0000 0000 0000 0000 0000
00000050: 0000 0000 0000 0000 0000 0000 0000 0000
00000060: 0000 0000 0000 0000 0000 0000 0000 0000
00000070: 0000 0000 0000 0000 0000 0000 0000 0000
00000080: 0000 0000 0000 0000 0000 0000 0000 0000
00000090: 0000 0000 0000 0000 0000 0000 0000 0000
000000a0: 0000 0000 0000 0000 0000 0000 0000 0000
000000b0: 0000 0000 0000 0000 0000 0000 0000 0000
000000c0: 0000 0000 0000 0000 0000 0000 0000 0000
000000d0: 0000 0000 0000 0000 0000 0000 0000 0000
000000e0: 0000 0000 0000 0000 0000 0000 0000 0000
000000f0: 0000 0000 0000 0000 0000 0000 0000 0000
00000100: 0000 0000 0000 0000 0000 0000 0000 0000
00000110: 0000 0000 0000 0000 0000 0000 0000 0000
00000120: 0000 0000 0000 0000 0000 0000 0000 0000
00000130: 0000 0000 0000 0000 0000 0000 0000 0000
00000140: 0000 0000 0000 0000 0000 0000 0000 0000
00000150: 0000 0000 0000 0000 0000 0000 0000 0000
00000160: 0000 0000 0000 0000 0000 0000 0000 0000
00000170: 0000 0000 0000 0000 0000 0000 0000 0000
00000180: 0000 0000 0000 0000 0000 0000 0000 0000
00000190: 0000 803f 0000 803f 0000 803f 0000 803f
000001a0: 0000 803f 0000 803f 0000 803f 0000 803f
000001b0: 0000 803f 0000 803f 0000 803f 0000 803f
000001c0: 0000 803f 0000 803f 0000 803f 0000 803f
000001d0: 0000 803f 0000 803f 0000 803f 0000 803f
000001e0: 0000 803f 0000 803f 0000 803f 0000 803f
000001f0: 0000 803f 0000 803f 0000 803f 0000 803f
00000200: 0000 803f 0000 803f 0000 803f 0000 803f
00000210: 0000 803f 0000 803f 0000 803f 0000 803f
00000220: 0000 803f 0000 803f 0000 803f 0000 803f
00000230: 0000 803f 0000 803f 0000 803f 0000 803f
00000240: 0000 803f 0000 803f 0000 803f 0000 803f
00000250: 0000 803f 0000 803f 0000 803f 0000 803f
00000260: 0000 803f 0000 803f 0000 803f 0000 803f
00000270: 0000 803f 0000 803f 0000 803f 0000 803f
00000280: 0000 803f 0000 803f 0000 803f 0000 803f
00000290: 0000 803f 0000 803f 0000 803f 0000 803f
000002a0: 0000 803f 0000 803f 0000 803f 0000 803f
000002b0: 0000 803f 0000 803f 0000 803f 0000 803f
000002c0: 0000 803f 0000 803f 0000 803f 0000 803f
000002d0: 0000 803f 0000 803f 0000 803f 0000 803f
000002e0: 0000 803f 0000 803f 0000 803f 0000 803f
000002f0: 0000 803f 0000 803f 0000 803f 0000 803f
00000300: 0000 803f 0000 803f 0000 803f 0000 803f
00000310: 0000 803f 0000 803f 0000 803f 0000 803f
00000320: 0000 0000 0000 0000 0000 0000 0000 0000
00000330: 0000 0000 0000 0000 0000 0000 0000 0000
00000340: 0000 0000 0000 0000 0000 0000 0000 0000
00000350: 0000 0000 0000 0000 0000 0000 0000 0000
00000360: 0000 0000 0000 0000 0000 0000 0000 0000
00000370: 0000 0000 0000 0000 0000 0000 0000 0000
00000380: 0000 0000 0000 0000 0000 0000 0000 0000
00000390: 0000 0000 0000 0000 0000 0000 0000 0000
000003a0: 0000 0000 0000 0000 0000 0000 0000 0000
000003b0: 0000 0000 0000 0000 0000 0000 0000 0000
000003c0: 0000 0000 0000 0000 0000 0000 0000 0000
000003d0: 0000 0000 0000 0000 0000 0000 0000 0000
000003e0: 0000 0000 0000 0000 0000 0000 0000 0000
000003f0: 0000 0000 0000 0000 0000 0000 0000 0000
0.0 0.0 0.0 0.0 0.0 0.0 0.0 0.0
0.0 0.0 0.0 0.0 0.0 0.0 0.0 0.0
0.0 0.0 0.0 0.0 0.0 0.0 0.0 0.0
0.0 0.0 0.0 0.0 0.0 0.0 0.0 0.0
0.0 0.0 0.0 0.0 0.0 0.0 0.0 0.0
0.0 0.0 0.0 0.0 0.0 0.0 0.0 0.0
0.0 0.0 0.0 0.0 0.0 0.0 0.0 0.0
0.0 0.0 0.0 0.0 0.0 0.0 0.0 0.0
0.0 0.0 0.0 0.0 0.0 0.0 0.0 0.0
0.0 0.0 0.0 0.0 0.0 0.0 0.0 0.0
0.0 0.0 0.0 0.0 0.0 0.0 0.0 0.0
0.0 0.0 0.0 0.0 0.0 0.0 0.0 0.0
0.0 0.0 0.0 0.0 1.0 1.0 1.0 1.0
1.0 1.0 1.0 1.0 1.0 1.0 1.0 1.0
1.0 1.0 1.0 1.0 1.0 1.0 1.0 1.0
1.0 1.0 1.0 1.0 1.0 1.0 1.0 1.0
1.0 1.0 1.0 1.0 1.0 1.0 1.0 1.0
1.0 1.0 1.0 1.0 1.0 1.0 1.0 1.0
1.0 1.0 1.0 1.0 1.0 1.0 1.0 1.0
1.0 1.0 1.0 1.0 1.0 1.0 1.0 1.0
1.0 1.0 1.0 1.0 1.0 1.0 1.0 1.0
1.0 1.0 1.0 1.0 1.0 1.0 1.0 1.0
1.0 1.0 1.0 1.0 1.0 1.0 1.0 1.0
1.0 1.0 1.0 1.0 1.0 1.0 1.0 1.0
1.0 1.0 1.0 1.0 1.0 1.0 1.0 1.0
0.0 0.0 0.0 0.0 0.0 0.0 0.0 0.0
0.0 0.0 0.0 0.0 0.0 0.0 0.0 0.0
0.0 0.0 0.0 0.0 0.0 0.0 0.0 0.0
0.0 0.0 0.0 0.0 0.0 0.0 0.0 0.0
0.0 0.0 0.0 0.0 0.0 0.0 0.0 0.0
0.0 0.0 0.0 0.0 0.0 0.0 0.0 0.0
0.0 0.0 0.0 0.0 0.0 0.0 0.0 0.0

net.1.log_gamma f4 [2]
00000000: 6ace 5fbc 4962 113d
-0.013660053 0.035494123

net.1.beta f4 [2]
00000000: 9e0f d9bb 229c a8bb
-0.006624176 -0.0051455656

net.1.running_mean f4 [2]
00000000: e0f9 a73f fb22 0040
1.3123131 2.002135

net.1.running_var f4 [2]
00000000: 2425 2340 a1dd ae40
2.549142 5.4645543

net.2.base_dist_mean f4 [2]
00000000: 0000 0000 0000 0000
0.0 0.0

net.2.base_dist_var f4 [2]
00000000: 0000 803f 0000 803f
1.0 1.0

net.2.net_input.weight f4 [100, 2]
00000000: 0f30 e13e 41d2 a43e 202e d2be c32b 3a3e
00000010: a210 87be 7f03 22bf 28af 193d 30b2 df3d
00000020: 0048 b0be 13a4 06bf 7098 73bc 6d79 f2bd
00000030: 1597 09bf 5d35 1e3e c4a8 333e d91f 28bf
00000040: f1de 603e b12a d23e 0dfc ff3e bf99 9a3e
00000050: 5907 ae3e ee43 dd3d cdaf cf35 8814 86be
00000060: 12cd 14bd bb0b e63d 27a0 493d 4f60 dc3e
00000070: cb66 8037 513d 1f3f 4a81 93be 1856 823d
00000080: 85fb a23d 33b4 15bf 891a 363e b383 41bd
00000090: 2617 563b 7bae 2abe ceeb dfbd 9d9f a73e
000000a0: 25ef c8bd 5e10 a93e 2210 e1be 5fde 22bf
000000b0: 3947 b6bd 8447 efbe f9a1 1a3d aad2 fbbe
000000c0: 3508 bcbe c233 ab3e d96c 563e 11ac 0c3f
000000d0: eace 783d 254f 67bd d233 a5be facc 513d
000000e0: a5d7 993d f696 1a3f 3143 b1be cc7e 873d
000000f0: 1b35 4dbc e2c6 cdbe 62e3 a3bc 7c6a c23e
00000100: f969 0ebf e2e7 963c 01ae c7be c342 b4b5
00000110: a5e9 19bc 081e e6bd 50c7 843e 23cc c3be
00000120: 2acf 8fbd 71d0 20bf 3d08 473b 1821 163f
00000130: 7fb2 9cbd 5f11 28bf 7aa1 16ba a65f c23e
00000140: bdd2 0bbd ff6a bf3e 8e92 8a3e 856d 273f
00000150: ae91 05bf fe92 9e3e 6b4a 5d3e 9148 a0be
00000160: 379c 433e 4dfd 28bf b6f0 053f 46ec d33c
00000170: d387 3c3c 79f6 59bc 7e0e 21bc a89a 7b3e
00000180: 04af d03e 3290 27bf 668e 9f3e 35d3 ddbe
00000190: bc25 41bd 8b5d b1bd 610d 8f3d ea38 153f
000001a0: 9041 113f 6468 a4be 87c0 03bf caa8 c23e
000001b0: 9c88 9fbd f999 e839 91f5 12be 2afd bbbe
000001c0: 857c 9633 1e8d 9cb9 0b67 e6be 01a2 13bf
000001d0: f7cb 2abe 3c9d e3bd ab72 bebe 7cc5 48bd
000001e0: c1b5 5cbe 2756 f53c a50c d53e c11e 0b3f
000001f0: 5238 103e 6b03 693d 58b6 633e 544d 81be
00000200: c950 a0be 8d3b 183f 1261 d73e e35b 28bf
00000210: 1e3a 663e 4d74 833e 816f c8bd 8147 08bf
00000220: 788b b13c c46f 963e 7370 00ba fa67 e2be
00000230: a7e5 2abe a5ec 55be c55d 003f 5769 91be
00000240: 26bd f5be 586e 053f 5441 1cba b82c 0bbf
00000250: 1616 b43e c54c f63e eec1 133d 2935 2b3f
00000260: f240 fb3e 1e76 523c 6461 17b7 7008 8336
00000270: b074 193e 1d68 26bf 7a48 5f3e 2e68 133f
00000280: 8dc2 143c a715 9e3e 4310 d6be bbc2 cbbe
00000290: ffc6 8a3e a830 d03e d9ed 9bbe 6840 29bf
000002a0: 328c 373e 2f2d 373d 598f 2239 467d 6f3e
000002b0: 484f 3bbe 23b6 91be 8e2c 893e 7a01 9bbd
000002c0: f562 ae3a 4322 163f 00b5 5abe 0429 a7b6
000002d0: 0dc0 c23e cf01 83be 7de9 a4bb 5b71 1c3c
000002e0: f065 9db8 63d7 0fbe 3830 b0be 58a9 bab9
000002f0: fb5d a0be 3509 31bf 71c4 fbbe c088 dabe
00000300: 4a19 aa3e 309c f4be 7632 043d 7978 3ebe
00000310: 7a80 a63e 0500 92be 1b5e 2e3e 8639 47be
0.43981978 0.3219166 -0.41050816 0.18180756 -0.26379877 -0.63286585 0.037520558 0.109226584
-0.34429932 -0.5259411 -0.014867887 -0.118395664 -0.5374616 0.15450044 0.17544848 -0.65673596
0.21960045 0.41048196 0.49996987 0.30195424 0.3398998 0.10803972 1.5473867e-06 -0.2618754
-0.036328383 0.11232706 0.049225 0.43042228 1.5306656e-05 0.62202936 -0.28809577 0.06364077
0.0795813 -0.5847809 0.1778356 -0.04724474 0.0032667606 -0.16668122 -0.10933648 0.32738963
-0.09811238 0.330203 -0.4395762 -0.6362056 -0.089003034 -0.4673425 0.037752125 -0.4918416
-0.3672501 0.33437926 0.2093996 0.5495005 0.060744204 -0.056471962 -0.32266098 0.05122087
0.07511834 0.603866 -0.34621575 0.066159815 -0.012524868 -0.40190798 -0.020005886 0.37971866
-0.5563045 0.018421117 -0.38999942 -1.3430475e-06 -0.009394084 -0.11236197 0.25933313 -0.3824168
-0.07021935 -0.62818056 0.00303699 0.5864425 -0.07651233 -0.65651506 -0.0005746108 0.379636
-0.034136523 0.3738632 0.27064937 0.6540149 -0.52175415 0.3097152 0.2161042 -0.31305364
0.1910256 -0.66011506 0.5232042 0.0258695 0.011506992 -0.013303393 -0.009830115 0.24570715
0.40758526 -0.654544 0.3116333 -0.433252 -0.047155127 -0.0866042 0.06984974 0.5828997
0.56740665 -0.32110894 -0.5146565 0.380194 -0.07789728 0.00044365207 -0.14351489 -0.36716586
7.007569e-08 -0.0002985978 -0.4500049 -0.57669073 -0.16679369 -0.111139745 -0.3719686 -0.04901646
-0.21553709 0.029948307 0.4161121 0.543438 0.14083984 0.056888025 0.22237527 -0.2525431
-0.31311634 0.5946587 0.42066246 -0.6576521 0.22483107 0.25674668 -0.09786893 -0.53234106
0.02167295 0.29382145 -0.0004899569 -0.44219953 -0.16689168 -0.20891054 0.5014308 -0.2840068
-0.4799587 0.52121496 -0.00059606624 -0.5436511 0.351731 0.48105446 0.036073618 0.6687799
0.49072987 0.012845544 -9.022977e-06 3.9050865e-06 0.14985919 -0.65002614 0.21804991 0.5758084
0.009079588 0.30875894 -0.41809282 -0.39797005 0.27104947 0.40662122 -0.304549 -0.661139
0.17924574 0.044720825 0.00015502925 0.23387632 -0.18291962 -0.28459272 0.26791805 -0.07568641
0.0013304638 0.5864603 -0.21358109 -4.9817627e-06 0.38037148 -0.25587317 -0.005032717 0.00954851
-7.505331e-05 -0.14047007 -0.34411788 -0.00035602855 -0.313217 -0.69154674 -0.4917331 -0.42682457
0.3322242 -0.47775412 0.032274686 -0.18600644 0.32519895 -0.2851564 0.17028086 -0.19455537

net.2.net_input.bias f4 [100]
00000000: a333 98be aa78 6a3e 50f0 16bd 9016 293f
00000010: ae04 d83e d7da 60be 0571 ef3d eaea 23be
00000020: 85a9 1f3e c7d8 633c 47ff ddbd f711 c1be
00000030: af5c 0c3f 655e d9be 18c7 2abf 8336 ccbe
00000040: 3598 d43e 9d47 eb3e 38d0 2c3f af0d a1be
00000050: 3376 dfbd 941f 18bf afac cebe 688d df3e
00000060: 7566 f13e 9cec 24bf 5430 f0bd 4816 a7be
00000070: f234 d8bd de0b 123f e419 5fbe b6f4 d2bd
00000080: 8272 c8be a4a9 78ba cb83 963e da23 153e
00000090: 5c0a 10bf 5646 10bf 1503 d7be c2a0 0c3f
000000a0: 13e2 20ba c1f4 323f 0af3 0fbf d368 973e
000000b0: fa78 593d 3bb1 633d a858 b2be d76f 1cbf
000000c0: 1a4c c6be 2eb3 253f 0b78 193f 4930 033f
000000d0: ff72 4cbe 4994 0e3f 201b 98be 5191 343f
000000e0: 73dd a1be 93ad 9c3d d156 4e3e 621d a13e
000000f0: 3301 363f e64c ad3e 993f d8bd 8d4b 19bf
00000100: 5f9e 50be ce3b dd3e b732 9ebe 3037 18bf
00000110: c1a3 8fbe 148f 973e bb8d 07be 3726 0cbe
00000120: f880 d93e 7319 083f 6d70 7fbe d668 0f3d
00000130: 09ec 093f d7c8 8ebe 912b 893e 9132 b6be
00000140: 181f 223f 5790 10bf 2206 f43d d61c fa3e
00000150: ff34 d4be ef0b 7b3e 74e0 9abe c0ae 143f
00000160: c456 2cbf ab0d 4abe eb3a 22bd eddf 083e
00000170: fc02 b23e 5fbe 8abd 8726 cfbe a562 073f
00000180: 6c04 e83e 95a3 133f 3762 2ebf c579 473e
-0.29726896 0.22897592 -0.036850274 0.6605005 0.4219107 -0.21958481 0.11691479 -0.16007581
0.1559201 0.013906664 -0.10839706 -0.3770902 0.54828924 -0.4245483 -0.6671004 -0.3988534
0.41522375 0.45953074 0.67505217 -0.31455752 -0.109112166 -0.59423184 -0.40366122 0.43662572
0.4714848 -0.6442354 -0.11727968 -0.32634187 -0.105569735 0.5704936 -0.2178722 -0.10300581
-0.39149863 -0.00094857276 0.29397425 0.14564458 -0.5626581 -0.56357324 -0.4199454 0.54932797
-0.00061372033 0.69904715 -0.56230223 0.29572162 0.053093888 0.055588942 -0.34833264 -0.61108154
-0.38729936 0.6472653 0.59948796 0.5124555 -0.19965743 0.55695015 -0.29708195 0.70534235
-0.31614265 0.07650294 0.20150305 0.3146773 0.7109558 0.3384773 -0.10559005 -0.59880906
-0.20372914 0.4320969 -0.30898067 -0.5945921 -0.28054622 0.29601347 -0.1323766 -0.13686453
0.42481208 0.5316383 -0.24945231 0.03501209 0.53875786 -0.27887604 0.2679105 -0.35585454
0.63328695 -0.56470245 0.11915232 0.48850125 -0.41446683 0.24516271 -0.3024937 0.5807915
-0.67319894 -0.19731776 -0.03960697 0.13366671 0.34767902 -0.06774592 -0.40459082 0.52884895
0.45315874 0.5767148 -0.68118614 0.19480045

net.2.net_input.mask f4 [100, 2]
00000000: 0000 0000 0000 803f 0000 0000 0000 803f
00000010: 0000 0000 0000 803f 0000 0000 0000 803f
00000020: 0000 0000 0000 803f 0000 0000 0000 803f
00000030: 0000 0000 0000 803f 0000 0000 0000 803f
00000040: 0000 0000 0000 803f 0000 0000 0000 803f
00000050: 0000 0000 0000 803f 0000 0000 0000 803f
00000060: 0000 0000 0000 803f 0000 0000 0000 803f
00000070: 0000 0000 0000 803f 0000 0000 0000 803f
00000080: 0000 0000 0000 803f 0000 0000 0000 803f
00000090: 0000 0000 0000 803f 0000 0000 0000 803f
000000a0: 0000 0000 0000 803f 0000 0000 0000 803f
000000b0: 0000 0000 0000 803f 0000 0000 0000 803f
000000c0: 0000 0000 0000 803f 0000 0000 0000 803f
000000d0: 0000 0000 0000 803f 0000 0000 0000 803f
000000e0: 0000 0000 0000 803f 0000 0000 0000 803f
000000f0: 0000 0000 0000 803f 0000 0000 0000 803f
00000100: 0000 0000 0000 803f 0000 0000 0000 803f
00000110: 0000 0000 0000 803f 0000 0000 0000 803f
00000120: 0000 0000 0000 803f 0000 0000 0000 803f
00000130: 0000 0000 0000 803f 0000 0000 0000 803f
00000140: 0000 0000 0000 803f 0000 0000 0000 803f
00000150: 0000 0000 0000 803f 0000 0000 0000 803f
00000160: 0000 0000 0000 803f 0000 0000 0000 803f
00000170: 0000 0000 0000 803f 0000 0000 0000 803f
00000180: 0000 0000 0000 803f 0000 0000 0000 803f
00000190: 0000 0000 0000 803f 0000 0000 0000 803f
000001a0: 0000 0000 0000 803f 0000 0000 0000 803f
000001b0: 0000 0000 0000 803f 0000 0000 0000 803f
000001c0: 0000 0000 0000 803f 0000 0000 0000 803f
000001d0: 0000 0000 0000 803f 0000 0000 0000 803f
000001e0: 0000 0000 0000 803f 0000 0000 0000 803f
000001f0: 0000 0000 0000 803f 0000 0000 0000 803f
00000200: 0000 0000 0000 803f 0000 0000 0000 803f
00000210: 0000 0000 0000 803f 0000 0000 0000 803f
00000220: 0000 0000 0000 803f 0000 0000 0000 803f
00000230: 0000 0000 0000 803f 0000 0000 0000 803f
00000240: 0000 0000 0000 803f 0000 0000 0000 803f
00000250: 0000 0000 0000 803f 0000 0000 0000 803f
00000260: 0000 0000 0000 803f 0000 0000 0000 803f
00000270: 0000 0000 0000 803f 0000 0000 0000 803f
00000280: 0000 0000 0000 803f 0000 0000 0000 803f
00000290: 0000 0000 0000 803f 0000 0000 0000 803f
000002a0: 0000 0000 0000 803f 0000 0000 0000 803f
000002b0: 0000 0000 0000 803f 0000 0000 0000 803f
000002c0: 0000 0000 0000 803f 0000 0000 0000 803f
000002d0: 0000 0000 0000 803f 0000 0000 0000 803f
000002e0: 0000 0000 0000 803f 0000 0000 0000 803f
000002f0: 0000 0000 0000 803f 0000 0000 0000 803f
00000300: 0000 0000 0000 803f 0000 0000 0000 803f
00000310: 0000 0000 0000 803f 0000 0000 0000 803f
0.0 1.0 0.0 1.0 0.0 1.0 0.0 1.0
0.0 1.0 0.0 1.0 0.0 1.0 0.0 1.0
0.0 1.0 0.0 1.0 0.0 1.0 0.0 1.0
0.0 1.0 0.0 1.0 0.0 1.0 0.0 1.0
0.0 1.0 0.0 1.0 0.0 1.0 0.0 1.0
0.0 1.0 0.0 1.0 0.0 1.0 0.0 1.0
0.0 1.0 0.0 1.0 0.0 1.0 0.0 1.0
0.0 1.0 0.0 1.0 0.0 1.0 0.0 1.0
0.0 1.0 0.0 1.0 0.0 1.0 0.0 1.0
0.0 1.0 0.0 1.0 0.0 1.0 0.0 1.0
0.0 1.0 0.0 1.0 0.0 1.0 0.0 1.0
0.0 1.0 0.0 1.0 0.0 1.0 0.0 1.0
0.0 1.0 0.0 1.0 0.0 1.0 0.0 1.0
0.0 1.0 0.0 1.0 0.0 1.0 0.0 1.0
0.0 1.0 0.0 1.0 0.0 1.0 0.0 1.0
0.0 1.0 0.0 1.0 0.0 1.0 0.0 1.0
0.0 1.0 0.0 1.0 0.0 1.0 0.0 1.0
0.0 1.0 0.0 1.0 0.0 1.0 0.0 1.0
0.0 1.0 0.0 1.0 0.0 1.0 0.0 1.0
0.0 1.0 0.0 1.0 0.0 1.0 0.0 1.0
0.0 1.0 0.0 1.0 0.0 1.0 0.0 1.0
0.0 1.0 0.0 1.0 0.0 1.0 0.0 1.0
0.0 1.0 0.0 1.0 0.0 1.0 0.0 1.0
0.0 1.0 0.0 1.0 0.0 1.0 0.0 1.0
0.0 1.0 0.0 1.0 0.0 1.0 0.0 1.0
