src/flows/results/kmm_kliep_synthetic_maf/model_checkpoint.pt (torch, 910772 bytes, 157 tensors)

base_dist_mean f4 [2]
00000000: 0000 0000 0000 0000
0.0 0.0

base_dist_var f4 [2]
00000000: 0000 803f 0000 803f
1.0 1.0

net.0.base_dist_mean f4 [2]
00000000: 0000 0000 0000 0000
0.0 0.0

net.0.base_dist_var f4 [2]
00000000: 0000 803f 0000 803f
1.0 1.0

net.0.net_input.weight f4 [100, 2]
00000000: 719d 2ebf b1e4 95bc 7e36 a3be 14f5 41bd
00000010: 518c 1ebf 0a9a f93d 0bc1 22bf fe13 06b8
00000020: f7a5 813e cb9f acbd db49 cc3e fa2f 313b
00000030: 8fbe c73e 46b0 8d3e 6fac 97be cc83 cb3d
00000040: ae4f a3be 7ef7 913d ef68 c3be 3da5 233e
00000050: bee4 0d3e 3554 edbd 9447 abbe c074 323d
00000060: d86c 293f 40e5 2e3e 39ad 89bd f605 7ab6
00000070: 23d4 d03e 4d0f a0be 67a0 823e 5411 a6bd
00000080: 2eb6 d13e 158e c3bd b9b3 043d 3452 ad3d
00000090: 7ff0 f73e 2bc7 babb bdca 263f 26b4 d4be
000000a0: b109 02be c202 05bf 0315 6139 bd5f 643d
000000b0: a724 97be 788c 053e be7c f2bd bdc3 dcbe
000000c0: e4f4 093f 7822 853e a7c2 b83e 78c0 c33e
000000d0: c5e9 863e d00a 513e 844d 153f c67a a4bc
000000e0: 5646 11bf 0bac 36be 6335 6cbb 22e8 a6ba
000000f0: c079 01bc bcc7 6c3e e5b7 613e 5a70 afbe
00000100: 8b9d 7bbe 8594 07bd 4b0d db3e 76bf cabd
00000110: f4ff 9cbe c793 0abc 4f9d 6ebe 3c17 1bbd
00000120: a2ea 31bf d081 e43e b870 c33e ca86 2abe
00000130: b244 ddbe bf7e 8534 5ba6 ce3e 29e4 a7be
00000140: f13b 95be 9e66 073e 52da e6be e204 b4ba
00000150: 1404 09bf 3d63 f13e 65a8 ca3e b842 f0be
00000160: 49e3 cabe 3ae9 c03d cb95 2537 189c 3e3d
00000170: e4ce 15bf 8d8a 53be 093c a63e eb7a b7be
00000180: e242 0bbe 65ff 143e c233 c53e 2b35 de37
00000190: ef73 553e db3e 183e b16f ebba 1de4 4ebd
000001a0: f1e6 083f 980d 013f 996b 9e3e 2454 13be
000001b0: 9138 1ebf 2036 03bf 2ca9 1f3b 92f3 e3bd
000001c0: e6e3 58be 0402 98bb 9fe7 2c3f d693 f83e
000001d0: 5b8b fab9 9597 83bd 26bd ad3e 0cda 2db9
000001e0: d51c 31bf 67f3 9f3d 5fc7 2b3f f001 c2be
000001f0: b7a5 47be 895a d23c 3dcd 15bf 8941 d8be
00000200: e2eb 063f 7b74 c0bd c640 d23e 5d74 bb39
00000210: 911c 343e 3d38 96be 5a78 26be e0e0 933e
00000220: cfe1 a83e 1d7f 6fbd 1edb be3d e090 b83e
00000230: 46a5 20bf 78f1 8d3e da7d 42be bb07 aabc
00000240: a179 ad3e 0c57 cfbe 927e e9bd ca50 fb3e
00000250: 7996 833e ac1c d3bd 954b 14be ea97 c03e
00000260: b1b4 8a3e e025 9a3e 1a8a e7be 9bc6 6d3d
00000270: 190d 053e 6dbc 403c c829 273f 6aaa 5f3e
00000280: 2a25 fd3e f192 143e a9bf 9d3e e41d 3fbc
00000290: 100f 24bf d83d d4be d833 e6be 63b0 8fbe
000002a0: 9c47 a73e 6bad 8d3d ea04 3abe 9f38 b7be
000002b0: 255f 333f f5a1 b33e efb5 a93e e9b5 033f
000002c0: bbba c2be 095c 6abe fd8c ccbe f0e4 74b6
000002d0: c142 1fbf bfa5 c13e b78c c932 5ebe 3a3e
000002e0: a555 c7be 8d87 64ba eb5b bd3d d7d7 4fbd
000002f0: 6257 293f a8f8 1fbe 0ea3 613e f35d 9abe
00000300: 3cb4 bcbd 602d 3fbd f39d 9a3e f547 a13e
00000310: f39b 3c3e 196d cfb9 5142 58be 07fd be3e
-0.68208987 -0.018297525 -0.31877512 -0.047352865 -0.61932856 0.12187584 -0.6357581 -3.196671e-05
0.25321934 -0.084289156 0.39900097 0.0027036653 0.39012572 0.27673548 -0.29623744 0.09937248
-0.31896728 0.071272835 -0.38165995 0.15981002 0.1385679 -0.11588327 -0.33453047 0.043568373
0.6618171 0.1707964 -0.06722493 -3.7256373e-06 0.40786847 -0.31261674 0.25513002 -0.08108774
0.40959305 -0.09548584 0.03239796 0.084629446 0.4842567 -0.005700012 0.65153104 -0.41543692
-0.1269901 -0.51957333 0.000214655 0.055755366 -0.2952015 0.13041866 -0.11840199 -0.43118086
0.538893 0.2600286 0.36086008 0.3823278 0.26350227 0.20414281 0.58321404 -0.020078074
-0.5674795 -0.17839067 -0.0036042563 -0.0012733976 -0.007902563 0.23123068 0.22042806 -0.34265405
-0.24571817 -0.033100624 0.4278358 -0.098997995 -0.30664027 -0.008458084 -0.23302196 -0.037863955
-0.69498646 0.4463029 0.38171935 -0.1665298 -0.43216473 2.48654e-07 0.40361294 -0.3279126
-0.29147294 0.13222739 -0.4508844 -0.0013734365 -0.5352185 0.47146025 0.395816 -0.46925902
-0.3962653 0.094194844 9.869643e-06 0.04653558 -0.58518815 -0.20658322 0.32467678 -0.35835966
-0.13599733 0.1455055 0.3851605 2.648922e-05 0.20845006 0.14867727 -0.0017962364 -0.050510515
0.5347739 0.5041137 0.30941465 -0.14387566 -0.61805063 -0.51254463 0.002436231 -0.11130442
-0.21180686 -0.004638912 0.67540926 0.4855029 -0.00047787544 -0.06425396 0.3393337 -0.00016579794
-0.6918462 0.07810097 0.6710109 -0.37892103 -0.19496809 0.025677936 -0.58516294 -0.422375
0.5270368 -0.09397217 0.41065043 0.00035754117 0.17589022 -0.2933978 -0.16256848 0.28882504
0.32984778 -0.058470834 0.09319137 0.3604803 -0.6275219 0.2772329 -0.18993321 -0.02075564
0.33881858 -0.404961 -0.114010945 0.49085075 0.2570074 -0.10308203 -0.14481957 0.376159
0.27090982 0.3010702 -0.4522255 0.058050733 0.12993278 0.011763674 0.6529813 0.21842352
0.49442416 0.14509179 0.30810288 -0.011664841 -0.64085484 -0.41453433 -0.4496143 -0.2806426
0.3267182 0.069178425 -0.18165937 -0.35785386 0.70067054 0.350845 0.33146617 0.5144945
-0.3803309 -0.22886671 -0.39951316 -3.6492092e-06 -0.62211233 0.37821767 2.346347e-08 0.18236682
-0.3893253 -0.00087177084 0.092460476 -0.05074295 0.6614896 -0.15622199 0.22034857 -0.30149803
-0.092140645 -0.046674132 0.3019863 0.3150021 0.18418865 -0.000395634 -0.21119048 0.3730242

net.0.net_input.bias f4 [100]
00000000: 15c2 18be 05cd 043f 47f0 a5be 9d92 183f
00000010: 1deb 343f 9e56 f93e 6ebd d53e 10d7 8b3e
00000020: b7b8 acbe ae14 1a3d d547 703e bf56 4dbe
00000030: 7713 073e a7fd dc3e 54fd 29bf 7690 1dbf
00000040: c678 cfbe 1fa6 cc3d 2363 15be 6e6d 283e
00000050: 1c47 31be 2428 92be 48b4 f23d 8cf1 f83e
00000060: ad52 d7be 13c1 193f f5d3 383e aac4 2f3f
00000070: 4218 22bf 90e0 fbbe 7da3 813e cb58 2bbf
00000080: 775b 0dbf 1275 b73e 39ad b33e fa3f 17bf
00000090: 65d8 003f 4f48 f2bd 005b 0a3f edaf e3be
000000a0: b79f 27bf 4563 f7be 95cd d2bd 8562 32bf
000000b0: ad18 42bd 9675 3bbe 481f 13be b849 60bb
000000c0: 5173 243d e379 2dbf ed4b b93e d1e2 83be
000000d0: c2b4 d13e 1b0b 293f e187 72be a7d4 903d
000000e0: 90a1 c43e d308 4abd d46e d1be eb6f 9f3e
000000f0: 3855 b33e 451d cfbe ca7f e0be 30c3 e5bd
00000100: 8ef6 293e 728a bcbe 6d86 1bbd 2f8d 95be
00000110: 489b 92be 83b0 e1bd 63f8 80be 9ca9 123f
00000120: c1ad 383e 99d7 273f a171 233f 3524 e93d
00000130: 31c5 9dbe a827 df3e 9e4e fbbc de2a f93e
00000140: 0231 08be 9b42 1e3f 928b d43d 056f 10be
00000150: 9292 fabe 9ee1 0a3f 3882 bb3d f50e 843e
00000160: b8ed 9d3e 0752 32bd b4af b9be 1fa5 81bd
00000170: 10e2 1bbd 6ba7 e53e a0fd 43bd cb71 33be
00000180: ede2 b0bd 6405 113e ae83 133f 6b06 023f
-0.14917786 0.51875335 -0.3240988 0.59598714 0.70671254 0.48698896 0.41746086 0.27312517
-0.33734676 0.037617378 0.23464902 -0.20052622 0.13191019 0.4316227 -0.66402173 -0.61548555
-0.4052183 0.099926226 -0.14588599 0.16447994 -0.17312282 -0.2854625 0.11850792 0.48621786
-0.42055264 0.6006023 0.18049605 0.6865946 -0.63318264 -0.49194765 0.25320044 -0.6693236
-0.5521769 0.35831505 0.35093096 -0.59081995 0.5033019 -0.11830198 0.54045105 -0.44470158
-0.6547808 -0.48317924 -0.10293118 -0.6968158 -0.047386814 -0.18306574 -0.14367402 -0.0034223627
0.040149037 -0.6776411 0.3619074 -0.25758985 0.4095822 0.6603257 -0.23684646 0.0707181
0.38404512 -0.04932482 -0.40904868 0.31140074 0.35025954 -0.40452018 -0.43847495 -0.1121887
0.1659796 -0.36824375 -0.037969995 -0.29209277 -0.28634095 -0.11019995 -0.25189504 0.57290053
0.18035032 0.6556335 0.6384526 0.11383859 -0.30814508 0.43584943 -0.030677136 0.48665518
-0.13299945 0.6182038 0.103781834 -0.1410485 -0.4893995 0.54250515 0.09155697 0.2579266
0.30845428 -0.04353526 -0.36266863 -0.063303225 -0.038057387 0.44854292 -0.047849298 -0.17523877
-0.08637033 0.14162213 0.576228 0.50791043

net.0.net_input.mask f4 [100, 2]
00000000: 0000 803f 0000 0000 0000 803f 0000 0000
00000010: 0000 803f 0000 0000 0000 803f 0000 0000
00000020: 0000 803f 0000 0000 0000 803f 0000 0000
00000030: 0000 803f 0000 0000 0000 803f 0000 0000
00000040: 0000 803f 0000 0000 0000 803f 0000 0000
00000050: 0000 803f 0000 0000 0000 803f 0000 0000
00000060: 0000 803f 0000 0000 0000 803f 0000 0000
00000070: 0000 803f 0000 0000 0000 803f 0000 0000
00000080: 0000 803f 0000 0000 0000 803f 0000 0000
00000090: 0000 803f 0000 0000 0000 803f 0000 0000
000000a0: 0000 803f 0000 0000 0000 803f 0000 0000
000000b0: 0000 803f 0000 0000 0000 803f 0000 0000
000000c0: 0000 803f 0000 0000 0000 803f 0000 0000
000000d0: 0000 803f 0000 0000 0000 803f 0000 0000
000000e0: 0000 803f 0000 0000 0000 803f 0000 0000
000000f0: 0000 803f 0000 0000 0000 803f 0000 0000
00000100: 0000 803f 0000 0000 0000 803f 0000 0000
00000110: 0000 803f 0000 0000 0000 803f 0000 0000
00000120: 0000 803f 0000 0000 0000 803f 0000 0000
00000130: 0000 803f 0000 0000 0000 803f 0000 0000
00000140: 0000 803f 0000 0000 0000 803f 0000 0000
00000150: 0000 803f 0000 0000 0000 803f 0000 0000
00000160: 0000 803f 0000 0000 0000 803f 0000 0000
00000170: 0000 803f 0000 0000 0000 803f 0000 0000
00000180: 0000 803f 0000 0000 0000 803f 0000 0000
00000190: 0000 803f 0000 0000 0000 803f 0000 0000
000001a0: 0000 803f 0000 0000 0000 803f 0000 0000
000001b0: 0000 803f 0000 0000 0000 803f 0000 0000
000001c0: 0000 803f 0000 0000 0000 803f 0000 0000
000001d0: 0000 803f 0000 0000 0000 803f 0000 0000
000001e0: 0000 803f 0000 0000 0000 803f 0000 0000
000001f0: 0000 803f 0000 0000 0000 803f 0000 0000
00000200: 0000 803f 0000 0000 0000 803f 0000 0000
00000210: 0000 803f 0000 0000 0000 803f 0000 0000
00000220: 0000 803f 0000 0000 0000 803f 0000 0000
00000230: 0000 803f 0000 0000 0000 803f 0000 0000
00000240: 0000 803f 0000 0000 0000 803f 0000 0000
00000250: 0000 803f 0000 0000 0000 803f 0000 0000
00000260: 0000 803f 0000 0000 0000 803f 0000 0000
00000270: 0000 803f 0000 0000 0000 803f 0000 0000
00000280: 0000 803f 0000 0000 0000 803f 0000 0000
00000290: 0000 803f 0000 0000 0000 803f 0000 0000
000002a0: 0000 803f 0000 0000 0000 803f 0000 0000
000002b0: 0000 803f 0000 0000 0000 803f 0000 0000
000002c0: 0000 803f 0000 0000 0000 803f 0000 0000
000002d0: 0000 803f 0000 0000 0000 803f 0000 0000
000002e0: 0000 803f 0000 0000 0000 803f 0000 0000
000002f0: 0000 803f 0000 0000 0000 803f 0000 0000
00000300: 0000 803f 0000 0000 0000 803f 0000 0000
00000310: 0000 803f 0000 0000 0000 803f 0000 0000
1.0 0.0 1.0 0.0 1.0 0.0 1.0 0.0
1.0 0.0 1.0 0.0 1.0 0.0 1.0 0.0
1.0 0.0 1.0 0.0 1.0 0.0 1.0 0.0
1.0 0.0 1.0 0.0 1.0 0.0 1.0 0.0
1.0 0.0 1.0 0.0 1.0 0.0 1.0 0.0
1.0 0.0 1.0 0.0 1.0 0.0 1.0 0.0
1.0 0.0 1.0 0.0 1.0 0.0 1.0 0.0
1.0 0.0 1.0 0.0 1.0 0.0 1.0 0.0
1.0 0.0 1.0 0.0 1.0 0.0 1.0 0.0
1.0 0.0 1.0 0.0 1.0 0.0 1.0 0.0
1.0 0.0 1.0 0.0 1.0 0.0 1.0 0.0
1.0 0.0 1.0 0.0 1.0 0.0 1.0 0.0
1.0 0.0 1.0 0.0 1.0 0.0 1.0 0.0
1.0 0.0 1.0 0.0 1.0 0.0 1.0 0.0
1.0 0.0 1.0 0.0 1.0 0.0 1.0 0.0
1.0 0.0 1.0 0.0 1.0 0.0 1.0 0.0
1.0 0.0 1.0 0.0 1.0 0.0 1.0 0.0
1.0 0.0 1.0 0.0 1.0 0.0 1.0 0.0
1.0 0.0 1.0 0.0 1.0 0.0 1.0 0.0
1.0 0.0 1.0 0.0 1.0 0.0 1.0 0.0
1.0 0.0 1.0 0.0 1.0 0.0 1.0 0.0
1.0 0.0 1.0 0.0 1.0 0.0 1.0 0.0
1.0 0.0 1.0 0.0 1.0 0.0 1.0 0.0
1.0 0.0 1.0 0.0 1.0 0.0 1.0 0.0
1.0 0.0 1.0 0.0 1.0 0.0 1.0 0.0

net.0.net.1.weight f4 [100, 100]
00000000: d69a 81bb f29a 463c de92 c03d e88a 303d
00000010: 379b a1bc a56a 603d b0b5 293d 4bc4 e2bc
00000020: 0bd6 543d 8ec6 0f3c 6490 30bd 3a0f 87bb
00000030: 9091 bd3d ff5f 053c 892c 97bd 7705 973d
00000040: 9116 d13c 772e 263d 2880 3d3a 87be 1b3d
00000050: f311 413d 2452 233b a077 583d b625 8cbd
00000060: f474 613d 281d 46bc 731f 813d 76c0 21bd
00000070: b808 84bc 7332 553b 8c55 f6ba 8b30 5e3c
00000080: 68d8 da3b 1143 443b 8b7d 573b 32ef a9bd
00000090: 6899 c43d 91b7 c43d f504 8fbd 40a8 ed3c
000000a0: 900e 9e3d 441d f23c fa63 373d e3ec ad3d
000000b0: ebc9 333d 2735 c0b2 cbe9 a5bd 736c 44bd
000000c0: 91bb 73bd 3c34 4e3c 6628 9ebd b111 c139
000000d0: 52d6 853c 7542 4fbd 91c3 62bd 1ca4 8b3c
000000e0: a056 dbbc 86d1 973c 40d1 a82f f4b5 0e3c
000000f0: 3f1b 66bc e05d 93bc 7bb7 d2bc 44fe 243d
00000100: f6e4 87bd 9ab3 b23b e469 27bd 080f afbd
00000110: 9c09 003d 8f28 103d f9fe bb3d 5ef2 393d
00000120: 30ef c23d 655f cfbd 2b98 c3bd 47e4 f83c
00000130: b53e 5c3d 3c15 313d 61bf 86bd 7f67 993d
00000140: 1642 b1bd 10eb 9b3c ae81 1abd 6943 09bd
00000150: dc23 b03d c919 8d3d 7d65 193d 9835 2a3d
00000160: 040c 533b 60e6 75bd e6b1 f43c f365 123b
00000170: 5a34 313d edc9 cfbd d447 b1bc dece 0e3d
00000180: bf56 f9bb e7d7 08bd b1c3 c7bd 1c03 deba
00000190: 83ff 063d b26d 9abd 3d9c d33c 24b9 303d
000001a0: 73a9 2d3d a5e0 843d 5ad5 72bd e730 3a3d
000001b0: 3868 7e3c 5ba8 acbc 7c52 9bbb ef27 d83d
000001c0: bb34 8cbb 58e8 77bc e1a5 34ba a57b 61b8
000001d0: 116b a8bd d724 91bc c92d 323d 1c34 68bc
000001e0: cd8f d1bc 0609 8f37 7b5e 8a3d ac13 bdbb
000001f0: e9ac 25bd 45f3 973c bd3d 66bd 3750 963d
00000200: dfe5 c3bc 4f90 55b6 38c7 cf3d 7d65 a3ba
00000210: dbb6 fe3c 67b0 b63d 0850 03bd 8942 2b3d
00000220: 1950 df3d b9be 2abd 3289 793d c64d a13c
00000230: 2912 983d 3317 a1bd b716 70bd 05ba a2bd
00000240: af55 bdbd 3095 38b5 22f3 963c 7ab9 c6bd
00000250: d566 a1bd 5aaf 7b3b e45f 10bd b899 e032
00000260: ae1f 9f3c dc58 d23d 6215 8d3b 33ba 94bd
00000270: 78d6 51bd 57c5 d0bd 3ede d5b2 ea9b 2c3c
00000280: d10f 3e3d f879 1b3c 6532 aa3d 9f4f a33c
00000290: 710a 67bc aa27 83bd 24e2 683c f323 713c
000002a0: 39e5 40bd 1134 4a3d 6631 b8bd 7c21 323d
000002b0: 90db 74bd 54c2 843d 78d8 a93d bb07 ac3d
000002c0: 4a03 8b3c 4cce 0dbd 2adb febc 6523 f0bc
000002d0: 6d4d 6a3b 10fd 37bd 3a6f 6c3d 2b02 873d
000002e0: deb5 9abd bd51 72bc 3cdc a0bd 1f7f 69bd
000002f0: 2195 13bd 74a3 9b3d c12f a1bd f597 a435
00000300: 69a4 c43d 0c84 75bd 5688 c8bd f50d 1a3d
00000310: 6760 8a3d e01e 1a3d 088a ac3d 00a2 9d3d
00000320: e440 98bc 106d 683d 19ad 57bd 98fc 073d
00000330: 51b8 87bd 2c40 963c 560d 4d3d 3e03 e73c
00000340: 563b 503d 6d6b aabc 90e2 f33c 3549 273c
00000350: 8660 a43d 3ded 503d c9a8 adbd b3b1 ee3c
00000360: 2abd 413d 01e4 b33c 2f1e 5ebd 7829 c13d
00000370: 3279 8abd 3916 d8ba b95e ae3c 7010 273d
00000380: 700c 2d3b 3460 6dba 248e 1d3d 80a5 883d
00000390: bec5 4ebd fd57 f035 626c 57bd 5db5 52bd
000003a0: 5b62 20bd ffe5 9fbd e611 943d 24ad 24bb
000003b0: 7c92 1dbd 1eca cebb 2641 a0bd f857 703d
000003c0: 8af9 d5bc f524 4d3d dd1f d33c 02c7 e6bd
000003d0: fc8c c3bd 8022 8abb 2b48 b13d 75a5 b43d
000003e0: ce26 ba3c b8b3 61bd e5a1 e63c 5ee2 8dba
000003f0: c222 4f3c 4c9b 98bc 1449 863d c042 acbb
-0.0039552255 0.012121903 0.09403013 0.04310122 -0.019727333 0.054789204 0.041433036 -0.02768149
0.05196194 0.0087753665 -0.04310645 -0.004121688 0.092562795 0.008140563 -0.07381541 0.07374089
0.025523456 0.040571656 0.00072288746 0.038023498 0.04713626 0.0024920786 0.05284846 -0.0684313
0.055043176 -0.012091912 0.063048266 -0.039490186 -0.016117439 0.003253129 -0.0018793806 0.013561378
0.0066786297 0.0029947201 0.0032881226 -0.08297576 0.095995724 0.09605325 -0.06983367 0.029010892
0.07717621 0.02955497 0.04477308 0.08492448 0.043893736 -2.2375913e-08 -0.08101233 -0.047954988
-0.05950505 0.012585696 -0.07722549 0.0003682501 0.016337547 -0.050600488 -0.055362288 0.017046027
-0.026774704 0.018532526 3.0707703e-10 0.008710373 -0.014044582 -0.017989099 -0.025722256 0.04028155
-0.06635468 0.005453539 -0.04087247 -0.08547789 0.031259164 0.03519493 0.091794915 0.045397155
0.09518278 -0.10125617 -0.09550508 0.030382289 0.05377074 0.04323314 -0.065794714 0.074904434
-0.08655183 0.019032985 -0.03772133 -0.033511553 0.0860059 0.06889684 0.037450302 0.041555017
0.0032203207 -0.060034156 0.029869985 0.0022338599 0.043262817 -0.10145936 -0.021640696 0.034865253
-0.007609218 -0.033409026 -0.09754122 -0.0016938183 0.03295852 -0.07540454 0.025831336 0.043145314
0.042397927 0.0648816 -0.0592855 0.045456793 0.015527777 -0.021076372 -0.0047400575 0.10554492
-0.004278747 -0.015131079 -0.0006891173 -5.3759333e-05 -0.08223546 -0.017717762 0.043500695 -0.01417258
-0.025581265 1.705113e-05 0.06756302 -0.0057701673 -0.040448103 0.018548617 -0.056211222 0.073395185
-0.023913322 -3.1823472e-06 0.1014542 -0.0012466159 0.031093052 0.08920365 -0.032058746 0.0418115
0.10903949 -0.041685794 0.060921855 0.019690406 0.07425339 -0.07865753 -0.058615413 -0.07945637
-0.092448585 -6.876244e-07 0.018426482 -0.097033456 -0.07880942 0.0038404078 -0.0352477 2.6146935e-08
0.019424286 0.10270855 0.0043055275 -0.07262077 -0.051229924 -0.101938896 -2.4897528e-08 0.01053522
0.046401802 0.009489529 0.08310393 0.019935427 -0.0141016105 -0.0640405 0.014214072 0.014718044
-0.047093604 0.04936606 -0.08993797 0.043488964 -0.059779704 0.06482378 0.08293241 0.08399912
0.016969342 -0.03462057 -0.031110365 -0.029313752 0.0035751716 -0.044919074 0.05772326 0.065922104
-0.0755422 -0.014789996 -0.078545064 -0.057005998 -0.036030892 0.075995356 -0.078704365 1.2263177e-06
0.09601671 -0.059940383 -0.09791629 0.037610967 0.067566685 0.0376271 0.08424765 0.07696915
-0.01858563 0.056744635 -0.052655313 0.033199877 -0.066269524 0.018341146 0.050061546 0.028199788
0.050837837 -0.020803178 0.02977112 0.010210325 0.08026223 0.051007498 -0.08479459 0.029137468
0.04729954 0.021959307 -0.054228004 0.09431738 -0.067613974 -0.0016486115 0.021285402 0.04078716
0.0026405118 -0.0009055168 0.038465634 0.066721916 -0.05048155 1.7907001e-06 -0.052593596 -0.051442493
-0.0391563 -0.0780754 0.07229976 -0.0025127614 -0.038469777 -0.0063107153 -0.07824926 0.058677644
-0.026119966 0.050084073 0.02577203 -0.112684265 -0.09548375 -0.0042155385 0.08656343 0.08820621
0.022723582 -0.055103034 0.02815337 -0.0010824909 0.012642564 -0.018628739 0.06556907 -0.0052569807

net.0.net.1.bias f4 [100]
00000000: d58f 22bd 8e9e c33c 598b b2bd 278d 2d3b
00000010: 9557 8d3d c58e d83c 4a20 8a3d 267e 02bc
00000020: fd44 d33d ab7f 2b3c 7992 22bd 386e d0bc
00000030: 72e5 a03c 65d0 50bd 3eb8 abbd a9b9 d1bd
00000040: 1db0 933d 2c3f 16bd 021e a6bc 8c0c a53d
00000050: 95b4 71bc 7536 c9bc d0e7 053d 0f26 48bd
00000060: 5184 d53d 59e3 a83d 6732 6dbd af3b 28bd
00000070: 22de c93d 4534 26bd 80e0 893d db92 623d
00000080: d5aa 0b3c b51b c7bd 8347 e13b ba7b 3bbb
00000090: efac c13d b0e3 343d a640 d03d 7dc0 bb3d
000000a0: e10a 7bbd 8741 a83d a7b9 ad3d 4af7 6ebb
000000b0: 0054 babd 3eaa 283d 6d96 b5bd 9cc9 d83b
000000c0: eec9 3fba eda6 353d b94b 57bd 5018 b13d
000000d0: 36e4 4c3c e358 a8b9 6f1e 91bc 5218 013d
000000e0: b436 a8bd fa2e 4f3c 20ed dbba 4275 7c3c
000000f0: 61b3 6bbb f62c 02bd adbd 9cbd 9231 bb3d
00000100: 570a 4cbc fec3 7e3d 4e7d 003e 7e3f 58bd
00000110: 7fd9 b3bd 46e9 0b3c 672d bc3d 0105 01bc
00000120: a1ee 8abc 59fb 293d 3ebe 4b3d c13e 4bba
00000130: 1216 78bd 6799 c8ba ee12 ac3c b44d b73c
00000140: 28a8 9bbb b4ec 223c a518 91aa 0ab0 0a3d
00000150: f0f4 3530 d707 c9bd 6a7c 923b a6a2 bb3c
00000160: 2036 16bc 47b5 783d 0697 8fb8 e338 bcbd
00000170: fc9e c8bb 9c51 383c 8a5d a33d 5c04 debd
00000180: 812f a93d 9800 c93d c16d d93c 2346 07b9
-0.03968795 0.023879316 -0.08717985 0.0026481838 0.069014706 0.026435265 0.0674444 -0.007964646
0.10315893 0.01046745 -0.03969047 -0.025443181 0.019640658 -0.05097999 -0.08384751 -0.1024049
0.07211325 -0.03668134 -0.02027798 0.08059034 -0.014752527 -0.0245621 0.032691777 -0.04886442
0.10425628 0.08246488 -0.057909396 -0.041072544 0.098568216 -0.04057719 0.06732273 0.055315834
0.008524616 -0.097220816 0.00687498 -0.0028607682 0.094568126 0.044162452 0.10168581 0.091675736
-0.06128967 0.08215623 0.08482676 -0.0036463314 -0.09098053 0.04117798 -0.08866582 0.0066158306
-0.00073161616 0.044348646 -0.05256245 0.08647215 0.012505582 -0.00032109683 -0.017714707 0.031517334
-0.08213559 0.012645477 -0.0016779043 0.015408816 -0.0035965072 -0.03178116 -0.07653365 0.09140314
-0.012453637 0.06219863 0.125478 -0.052794926 -0.087817185 0.008539503 0.09188347 -0.007874728
-0.01695949 0.04149947 0.049741976 -0.00077531865 -0.060567923 -0.0015304507 0.02100512 0.022375919
-0.0047502704 0.00994413 -2.5774275e-13 0.03385929 6.6195494e-10 -0.098159485 0.0044703977 0.022904705
-0.009168178 0.060719755 -6.846902e-05 -0.09190538 -0.006122468 0.011249926 0.079768255 -0.10840675
0.08261014 0.098145664 0.026541593 -0.00012900731

net.0.net.1.mask f4 [100, 100]
00000000: 0000 803f 0000 803f 0000 803f 0000 803f
00000010: 0000 803f 0000 803f 0000 803f 0000 803f
00000020: 0000 803f 0000 803f 0000 803f 0000 803f
00000030: 0000 803f 0000 803f 0000 803f 0000 803f
00000040: 0000 803f 0000 803f 0000 803f 0000 803f
00000050: 0000 803f 0000 803f 0000 803f 0000 803f
00000060: 0000 803f 0000 803f 0000 803f 0000 803f
00000070: 0000 803f 0000 803f 0000 803f 0000 803f
00000080: 0000 803f 0000 803f 0000 803f 0000 803f
00000090: 0000 803f 0000 803f 0000 803f 0000 803f
000000a0: 0000 803f 0000 803f 0000 803f 0000 803f
000000b0: 0000 803f 0000 803f 0000 803f 0000 803f
000000c0: 0000 803f 0000 803f 0000 803f 0000 803f
000000d0: 0000 803f 0000 803f 0000 803f 0000 803f
000000e0: 0000 803f 0000 803f 0000 803f 0000 803f
000000f0: 0000 803f 0000 803f 0000 803f 0000 803f
00000100: 0000 803f 0000 803f 0000 803f 0000 803f
00000110: 0000 803f 0000 803f 0000 803f 0000 803f
00000120: 0000 803f 0000 803f 0000 803f 0000 803f
00000130: 0000 803f 0000 803f 0000 803f 0000 803f
00000140: 0000 803f 0000 803f 0000 803f 0000 803f
00000150: 0000 803f 0000 803f 0000 803f 0000 803f
00000160: 0000 803f 0000 803f 0000 803f 0000 803f
00000170: 0000 803f 0000 803f 0000 803f 0000 803f
00000180: 0000 803f 0000 803f 0000 803f 0000 803f
00000190: 0000 803f 0000 803f 0000 803f 0000 803f
000001a0: 0000 803f 0000 803f 0000 803f 0000 803f
000001b0: 0000 803f 0000 803f 0000 803f 0000 803f
000001c0: 0000 803f 0000 803f 0000 803f 0000 803f
000001d0: 0000 803f 0000 803f 0000 803f 0000 803f
000001e0: 0000 803f 0000 803f 0000 803f 0000 803f
000001f0: 0000 803f 0000 803f 0000 803f 0000 803f
00000200: 0000 803f 0000 803f 0000 803f 0000 803f
00000210: 0000 803f 0000 803f 0000 803f 0000 803f
00000220: 0000 803f 0000 803f 0000 803f 0000 803f
00000230: 0000 803f 0000 803f 0000 803f 0000 803f
00000240: 0000 803f 0000 803f 0000 803f 0000 803f
00000250: 0000 803f 0000 803f 0000 803f 0000 803f
00000260: 0000 803f 0000 803f 0000 803f 0000 803f
00000270: 0000 803f 0000 803f 0000 803f 0000 803f
00000280: 0000 803f 0000 803f 0000 803f 0000 803f
00000290: 0000 803f 0000 803f 0000 803f 0000 803f
000002a0: 0000 803f 0000 803f 0000 803f 0000 803f
000002b0: 0000 803f 0000 803f 0000 803f 0000 803f
000002c0: 0000 803f 0000 803f 0000 803f 0000 803f
000002d0: 0000 803f 0000 803f 0000 803f 0000 803f
000002e0: 0000 803f 0000 803f 0000 803f 0000 803f
000002f0: 0000 803f 0000 803f 0000 803f 0000 803f
00000300: 0000 803f 0000 803f 0000 803f 0000 803f
00000310: 0000 803f 0000 803f 0000 803f 0000 803f
00000320: 0000 803f 0000 803f 0000 803f 0000 803f
00000330: 0000 803f 0000 803f 0000 803f 0000 803f
00000340: 0000 803f 0000 803f 0000 803f 0000 803f
00000350: 0000 803f 0000 803f 0000 803f 0000 803f
00000360: 0000 803f 0000 803f 0000 803f 0000 803f
00000370: 0000 803f 0000 803f 0000 803f 0000 803f
00000380: 0000 803f 0000 803f 0000 803f 0000 803f
00000390: 0000 803f 0000 803f 0000 803f 0000 803f
000003a0: 0000 803f 0000 803f 0000 803f 0000 803f
000003b0: 0000 803f 0000 803f 0000 803f 0000 803f
000003c0: 0000 803f 0000 803f 0000 803f 0000 803f
000003d0: 0000 803f 0000 803f 0000 803f 0000 803f
000003e0: 0000 803f 0000 803f 0000 803f 0000 803f
000003f0: 0000 803f 0000 803f 0000 803f 0000 803f
1.0 1.0 1.0 1.0 1.0 1.0 1.0 1.0
1.0 1.0 1.0 1.0 1.0 1.0 1.0 1.0
1.0 1.0 1.0 1.0 1.0 1.0 1.0 1.0
1.0 1.0 1.0 1.0 1.0 1.0 1.0 1.0
1.0 1.0 1.0 1.0 1.0 1.0 1.0 1.0
1.0 1.0 1.0 1.0 1.0 1.0 1.0 1.0
1.0 1.0 1.0 1.0 1.0 1.0 1.0 1.0
1.0 1.0 1.0 1.0 1.0 1.0 1.0 1.0
1.0 1.0 1.0 1.0 1.0 1.0 1.0 1.0
1.0 1.0 1.0 1.0 1.0 1.0 1.0 1.0
1.0 1.0 1.0 1.0 1.0 1.0 1.0 1.0
1.0 1.0 1.0 1.0 1.0 1.0 1.0 1.0
1.0 1.0 1.0 1.0 1.0 1.0 1.0 1.0
1.0 1.0 1.0 1.0 1.0 1.0 1.0 1.0
1.0 1.0 1.0 1.0 1.0 1.0 1.0 1.0
1.0 1.0 1.0 1.0 1.0 1.0 1.0 1.0
1.0 1.0 1.0 1.0 1.0 1.0 1.0 1.0
1.0 1.0 1.0 1.0 1.0 1.0 1.0 1.0
1.0 1.0 1.0 1.0 1.0 1.0 1.0 1.0
1.0 1.0 1.0 1.0 1.0 1.0 1.0 1.0
1.0 1.0 1.0 1.0 1.0 1.0 1.0 1.0
1.0 1.0 1.0 1.0 1.0 1.0 1.0 1.0
1.0 1.0 1.0 1.0 1.0 1.0 1.0 1.0
1.0 1.0 1.0 1.0 1.0 1.0 1.0 1.0
1.0 1.0 1.0 1.0 1.0 1.0 1.0 1.0
1.0 1.0 1.0 1.0 1.0 1.0 1.0 1.0
1.0 1.0 1.0 1.0 1.0 1.0 1.0 1.0
1.0 1.0 1.0 1.0 1.0 1.0 1.0 1.0
1.0 1.0 1.0 1.0 1.0 1.0 1.0 1.0
1.0 1.0 1.0 1.0 1.0 1.0 1.0 1.0
1.0 1.0 1.0 1.0 1.0 1.0 1.0 1.0
1.0 1.0 1.0 1.0 1.0 1.0 1.0 1.0

net.0.net.3.weight f4 [4, 100]
00000000: a17c feb6 913a 80ba b227 45b9 a53c 1bb8
00000010: 52ae 5db5 c15a 822f 45a5 3533 fdaf 2a3b
00000020: c5ff c03a cfb4 f6b3 cfe4 3139 6c3e 6838
00000030: ffe9 a135 054e 32bb d059 7e39 d421 d1b8
00000040: b36d e7b9 f04b 9930 0a6d 96ba 42e8 9630
00000050: fe48 d139 d965 873b 37b6 3f30 2010 4b3b
00000060: d5a5 8539 802b a0ba 1cb9 6d3b eedb 72ba
00000070: 8229 73ba 98e2 4d32 c644 4638 482d 41ba
00000080: e07a 0c3b c303 36b8 380d 5e3b 11b8 dfb7
00000090: a413 5534 7a95 3aba 7e9b 59b5 2f5b 3d3b
000000a0: 2e1b bc31 c430 223b 4ca3 402c a1a3 7737
000000b0: 8f0d e2b8 2fb5 383b f3d8 9c38 93ca 59b8
000000c0: 4e42 4d39 f4f0 b1ba 654d 2a35 4468 76b8
000000d0: 4294 8631 bc1f 7036 508c c6ba b0ce 663b
000000e0: 224f e032 f593 f032 0aac aab0 1d03 6fb4
000000f0: d79d 9fb9 7506 99ba 5ef8 4fba 7189 4538
00000100: 2d53 5b35 1e28 ef2c 1b7a acb9 c0c3 b734
00000110: 413f 4136 6c27 6eb3 af3b 8c3a 46b8 0e3b
00000120: 4410 abb9 da63 7aba d359 f636 4649 26bb
00000130: f3c2 0a38 e539 2738 4c8d 42ba 0258 863a
00000140: 9283 34bb fd30 2c36 ab8c 8f38 f9c8 0738
00000150: 581a fdb8 c10b aeab 1263 6f38 35c2 aab7
00000160: cc21 bfb9 e57e cf3a a5e4 92ae fd54 1439
00000170: b1e2 853b c739 9233 639b 7db7 4754 913a
00000180: a3b7 f9b9 ac5d 463b 1e00 ef3a 567b 79b8
00000190: b29a 41bd 5611 603d a508 50ba 142a 4b39
000001a0: a124 5a3d a08d a73d 8b44 a43d c13f ed3c
000001b0: 7a31 8abd 70ad c0bd 7130 d43d 1dde c4bd
000001c0: 4b60 ae3d 93b2 78bd bad9 2abb a455 b83d
000001d0: 084b 8a3d 9acf 8abd c520 343d 251e 8c3d
000001e0: 5b87 113c 31a0 8a3d 4b30 a2bd 94fd cdbd
000001f0: eeff 833d 6c31 0f3d e37b 7ebd 465a b2bd
00000200: 75d9 a6bd dd7d 9cbd 3f5f c13d 508f 913d
00000210: 7df4 55bd a60b 943d 868d 9d3c f482 4d3b
00000220: 8401 ffbd 5d40 323c a10c 97bc 5668 16bd
00000230: 5d3b babc 9702 333d b93d 74bd 8d2c 9333
00000240: 998f ccbd 2c19 92bd 2767 cdbd 447b 8fbc
00000250: 109d afb6 3c63 9e3d cbcd 76bd dbd8 ce3c
00000260: a0d2 b4bd bfb1 83b6 ca89 773d e508 b5bb
00000270: a1ba 9dbc ac59 b5bd e65a e3ba 76ce e1b9
00000280: 2a47 a3b4 a968 ddbc a46d d4bd dd34 8c3c
00000290: 8510 cb3d c83a b13d 4c49 30bd 8f74 b23d
000002a0: 0f86 44bd 1512 babd e3fa 5d3a 8fe3 543b
000002b0: 601d bcbd 9f80 263b 3050 e13d c3ac 23af
000002c0: 36e1 043d 1273 5435 7047 003c 92c8 843c
000002d0: ae54 ad3d 7392 873d c835 91bb b587 9fbd
000002e0: 89a7 282c f2d5 893c 629f 32bc 773c ff3c
000002f0: c05f 853d 5ba9 b93d 33a0 51b6 3751 a13d
00000300: e161 50bb dc6a a0bd 4064 a6bd a278 a93d
00000310: 3b1e 0ebd 72b3 3bbd 1d7d 14bd b69a 91b9
00000320: 87e1 63b2 8f90 efb7 8651 5db6 7552 aab7
00000330: 6f6e 0bba faff 90b4 c4cd e9b9 fb59 84bb
00000340: e8d0 ceb0 acf4 e1b6 b9e7 dbb8 0495 043b
00000350: c0ea 8437 0070 cab9 b6ae 83b8 49a0 d8ba
00000360: 77a0 71bb 83e3 55ba ec8d 03ba 572e bd2e
00000370: d4ee 6e2a 5076 ce39 f820 7e36 35e8 98ba
00000380: 1a67 14bb 8254 8839 60a6 9c34 20bc 4f3a
00000390: fe84 12b9 6f8f 1a37 29bb 85bb 06fa 8ea9
000003a0: 10cd 47b8 e7ae f539 0c82 c2af 350f 81bb
000003b0: fd8b 84bb bec2 cf30 9b19 9631 3337 85ad
000003c0: bb70 1036 ffcc c2b3 57a5 74ab a086 8e3b
000003d0: bf63 8a3b c56f fcb7 782a c231 ebab 2639
000003e0: 1222 972c dd27 d238 d32c 2238 a09f 00b9
000003f0: f890 b439 bf45 8034 f8f5 4ab0 64b8 1135
-7.5842986e-06 -0.0009783079 -0.00018802172 -3.701136e-05 -8.2582585e-07 2.3711347e-10 4.229266e-08 0.0026044839
0.0014724663 -1.14881566e-07 0.00016965273 5.5371245e-05 1.2063537e-06 -0.0027207148 0.00024256785 -9.9721976e-05
-0.00044141486 1.1153798e-09 -0.0011476588 1.0979948e-09 0.0003991797 0.0041320142 6.974434e-10 0.0030984953
0.0002549129 -0.0012219995 0.0036273664 -0.00092643395 -0.00092758995 1.1984092e-08 4.727093e-05 -0.0007369113
0.0021435544 -4.3395685e-05 0.003388239 -2.6669384e-05 1.9844316e-07 -0.00071176107 -8.106507e-07 0.002889346
5.47461e-09 0.0024748305 2.737549e-12 1.4760445e-05 -0.00010779045 0.0028184166 7.4790696e-05 -5.1925494e-05
0.00019575024 -0.0013575838 6.344256e-07 -5.8748075e-05 3.9167682e-09 3.5781259e-06 -0.0015148018 0.003521841
2.6113018e-08 2.800696e-08 -1.2418024e-09 -2.2259742e-07 -0.00030444443 -0.0011674898 -0.0007933433 4.7096462e-05
8.1704894e-07 6.7972425e-12 -0.00032897372 3.4228833e-07 2.879606e-06 -5.5449547e-08 0.001069894 0.0021777316
-0.0003262778 -0.0009551622 7.341828e-06 -0.0025373264 3.3083325e-05 3.986982e-05 -0.00074215676 0.0010249617
-0.0027544242 2.5658512e-06 6.844973e-05 3.237368e-05 -0.00012068887 -1.2366706e-12 5.7074307e-05 -2.0356014e-05
-0.0003645554 0.0015830664 -6.679927e-11 0.0001414604 0.0040858616 6.8091644e-08 -1.5116154e-05 0.0011087739
-0.000476298 0.0030268235 0.0018234288 -5.948109e-05 -0.04726667 0.054704033 -0.00079358584 0.00019375264
0.05325759 0.0818131 0.08020886 0.028961064 -0.06747718 -0.094080806 0.10360802 -0.09612677
0.0851446 -0.060717177 -0.0026069717 0.0900071 0.06752592 -0.06777878 0.043976564 0.06841687
0.008882369 0.06768835 -0.079193674 -0.10058132 0.06445299 0.03495924 -0.062129866 -0.087086245
-0.081469454 -0.07641194 0.09441995 0.07107413 -0.052235115 0.07228784 0.019232523 0.0031358572
-0.12451461 0.010879603 -0.01843864 -0.036720596 -0.022733385 0.04370364 -0.059629176 6.853325e-08
-0.099883266 -0.071337074 -0.100294404 -0.017514832 -5.233691e-06 0.07733771 -0.060254853 0.02524989
-0.08829236 -3.9247966e-06 0.06043414 -0.005524742 -0.01925403 -0.08854994 -0.0017345815 -0.0004306917
-3.0412895e-07 -0.027027445 -0.10372475 0.01711505 0.0991526 0.0865379 -0.04303865 0.08713638
-0.04797941 -0.0908548 0.0008467866 0.0032484268 -0.0918529 0.0025406254 0.11001623 -1.4886141e-10
0.03244134 7.9143604e-07 0.007829532 0.01620892 0.08463417 0.0661973 -0.00443146 -0.07789556
2.3967237e-12 0.01682565 -0.010902258 0.031156762 0.065124035 0.09065505 -3.1236675e-06 0.078768186
-0.0031796622 -0.07832882 -0.0812459 0.08274962 -0.0346968 -0.04582543 -0.03625213 -0.00027771824
-1.3264418e-08 -2.8558336e-05 -3.297902e-06 -2.0303976e-05 -0.0005318885 -2.7008338e-07 -0.0004459453 -0.004039047
-1.5047847e-09 -6.734006e-06 -0.000104858955 0.0020230422 1.584494e-05 -0.0003861189 -6.279109e-05 -0.0016527261
-0.0036869326 -0.0008159207 -0.00050184014 8.6029565e-11 2.1221507e-13 0.00039379532 3.786814e-06 -0.0011665883
-0.002264446 0.00026002905 2.9178318e-07 0.0007924456 -0.00013973188 9.212511e-06 -0.004081149 -6.349439e-14
-4.7636277e-05 0.00046860354 -3.5380798e-10 -0.0039385804 -0.004045008 1.5116581e-09 4.3684856e-09 -1.5144863e-11
2.152329e-06 -9.0711175e-08 -8.691567e-13 0.0043495446 0.0042233164 -3.0092788e-05 5.6509712e-09 0.00015895038
4.2954607e-12 0.000100210054 3.8665556e-05 -0.00012266496 0.00034440286 2.3892605e-07 -7.3836715e-10 5.4285033e-07

net.0.net.3.bias f4 [4]
00000000: ca73 ae3a 0b96 16bd ac4d 113e 9a2c fb3d
0.0013309654 -0.036764186 0.14189786 0.122643664

net.0.net.3.mask f4 [4, 100]
00000000: 0000 0000 0000 0000 0000 0000 0000 0000
00000010: 0000 0000 0000 0000 0000 0000 0000 0000
00000020: 0000 0000 0000 0000 0000 0000 0000 0000
00000030: 0000 0000 0000 0000 0000 0000 0000 0000
00000040: 0000 0000 0000 0000 0000 0000 0000 0000
00000050: 0000 0000 0000 0000 0000 0000 0000 0000
00000060: 0000 0000 0000 0000 0000 0000 0000 0000
00000070: 0000 0000 0000 0000 0000 0000 0000 0000
00000080: 0000 0000 0000 0000 0000 0000 0000 0000
00000090: 0000 0000 0000 0000 0000 0000 0000 0000
000000a0: 0000 0000 0000 0000 0000 0000 0000 0000
000000b0: 0000 0000 0000 0000 0000 0000 0000 0000
000000c0: 0000 0000 0000 0000 0000 0000 0000 0000
000000d0: 0000 0000 0000 0000 0000 0000 0000 0000
000000e0: 0000 0000 0000 0000 0000 0000 0000 0000
000000f0: 0000 0000 0000 0000 0000 0000 0000 0000
00000100: 0000 0000 0000 0000 0000 0000 0000 0000
00000110: 0000 0000 0000 0000 0000 0000 0000 0000
00000120: 0000 0000 0000 0000 0000 0000 0000 0000
00000130: 0000 0000 0000 0000 0000 0000 0000 0000
00000140: 0000 0000 0000 0000 0000 0000 0000 0000
00000150: 0000 0000 0000 0000 0000 0000 0000 0000
00000160: 0000 0000 0000 0000 0000 0000 0000 0000
00000170: 0000 0000 0000 0000 0000 0000 0000 0000
00000180: 0000 0000 0000 0000 0000 0000 0000 0000
00000190: 0000 803f 0000 803f 0000 803f 0000 803f
000001a0: 0000 803f 0000 803f 0000 803f 0000 803f
000001b0: 0000 803f 0000 803f 0000 803f 0000 803f
000001c0: 0000 803f 0000 803f 0000 803f 0000 803f
000001d0: 0000 803f 0000 803f 0000 803f 0000 803f
000001e0: 0000 803f 0000 803f 0000 803f 0000 803f
000001f0: 0000 803f 0000 803f 0000 803f 0000 803f
00000200: 0000 803f 0000 803f 0000 803f 0000 803f
00000210: 0000 803f 0000 803f 0000 803f 0000 803f
00000220: 0000 803f 0000 803f 0000 803f 0000 803f
00000230: 0000 803f 0000 803f 0000 803f 0000 803f
00000240: 0000 803f 0000 803f 0000 803f 0000 803f
00000250: 0000 803f 0000 803f 0000 803f 0000 803f
00000260: 0000 803f 0000 803f 0000 803f 0000 803f
00000270: 0000 803f 0000 803f 0000 803f 0000 803f
00000280: 0000 803f 0000 803f 0000 803f 0000 803f
00000290: 0000 803f 0000 803f 0000 803f 0000 803f
000002a0: 0000 803f 0000 803f 0000 803f 0000 803f
000002b0: 0000 803f 0000 803f 0000 803f 0000 803f
000002c0: 0000 803f 0000 803f 0000 803f 0000 803f
000002d0: 0000 803f 0000 803f 0000 803f 0000 803f
000002e0: 0000 803f 0000 803f 0000 803f 0000 803f
000002f0: 0000 803f 0000 803f 0000 803f 0000 803f
00000300: 0000 803f 0000 803f 0000 803f 0000 803f
00000310: 0000 803f 0000 803f 0000 803f 0000 803f
00000320: 0000 0000 0000 0000 0000 0000 0000 0000
00000330: 0000 0000 0000 0000 0000 0000 0000 0000
00000340: 0000 0000 0000 0000 0000 0000 0000 0000
00000350: 0000 0000 0000 0000 0000 0000 0000 0000
00000360: 0000 0000 0000 0000 0000 0000 0000 0000
00000370: 0000 0000 0000 0000 0000 0000 0000 0000
00000380: 0000 0000 0000 0000 0000 0000 0000 0000
00000390: 0000 0000 0000 0000 0000 0000 0000 0000
000003a0: 0000 0000 0000 0000 0000 0000 0000 0000
000003b0: 0000 0000 0000 0000 0000 0000 0000 0000
000003c0: 0000 0000 0000 0000 0000 0000 0000 0000
000003d0: 0000 0000 0000 0000 0000 0000 0000 0000
000003e0: 0000 0000 0000 0000 0000 0000 0000 0000
000003f0: 0000 0000 0000 0000 0000 0000 0000 0000
0.0 0.0 0.0 0.0 0.0 0.0 0.0 0.0
0.0 0.0 0.0 0.0 0.0 0.0 0.0 0.0
0.0 0.0 0.0 0.0 0.0 0.0 0.0 0.0
0.0 0.0 0.0 0.0 0.0 0.0 0.0 0.0
0.0 0.0 0.0 0.0 0.0 0.0 0.0 0.0
0.0 0.0 0.0 0.0 0.0 0.0 0.0 0.0
0.0 0.0 0.0 0.0 0.0 0.0 0.0 0.0
0.0 0.0 0.0 0.0 0.0 0.0 0.0 0.0
0.0 0.0 0.0 0.0 0.0 0.0 0.0 0.0
0.0 0.0 0.0 0.0 0.0 0.0 0.0 0.0
0.0 0.0 0.0 0.0 0.0 0.0 0.0 0.0
0.0 0.0 0.0 0.0 0.0 0.0 0.0 0.0
0.0 0.0 0.0 0.0 1.0 1.0 1.0 1.0
1.0 1.0 1.0 1.0 1.0 1.0 1.0 1.0
1.0 1.0 1.0 1.0 1.0 1.0 1.0 1.0
1.0 1.0 1.0 1.0 1.0 1.0 1.0 1.0
1.0 1.0 1.0 1.0 1.0 1.0 1.0 1.0
1.0 1.0 1.0 1.0 1.0 1.0 1.0 1.0
1.0 1.0 1.0 1.0 1.0 1.0 1.0 1.0
1.0 1.0 1.0 1.0 1.0 1.0 1.0 1.0
1.0 1.0 1.0 1.0 1.0 1.0 1.0 1.0
1.0 1.0 1.0 1.0 1.0 1.0 1.0 1.0
1.0 1.0 1.0 1.0 1.0 1.0 1.0 1.0
1.0 1.0 1.0 1.0 1.0 1.0 1.0 1.0
1.0 1.0 1.0 1.0 1.0 1.0 1.0 1.0
0.0 0.0 0.0 0.0 0.0 0.0 0.0 0.0
0.0 0.0 0.0 0.0 0.0 0.0 0.0 0.0
0.0 0.0 0.0 0.0 0.0 0.0 0.0 0.0
0.0 0.0 0.0 0.0 0.0 0.0 0.0 0.0
0.0 0.0 0.0 0.0 0.0 0.0 0.0 0.0
0.0 0.0 0.0 0.0 0.0 0.0 0.0 0.0
0.0 0.0 0.0 0.0 0.0 0.0 0.0 0.0

net.1.log_gamma f4 [2]
00000000: 0a42 a7bc cee0 263d
-0.020417232 0.040741734

net.1.beta f4 [2]
00000000: 9229 f9bb 1f0e c6bb
-0.0076038325 -0.006044164

net.1.running_mean f4 [2]
00000000: c3c9 a63f 6130 0640
1.3030323 2.0967028

net.1.running_var f4 [2]
00000000: 138d 1940 a406 c240
2.3992355 6.0633106

net.2.base_dist_mean f4 [2]
00000000: 0000 0000 0000 0000
0.0 0.0

net.2.base_dist_var f4 [2]
00000000: 0000 803f 0000 803f
1.0 1.0

net.2.net_input.weight f4 [100, 2]
00000000: d0d1 c53e 1973 a53e 0214 b7be 383a 3d3e
00000010: 1dfe 5bbe 618a 22bf b3e4 813c 0c6b df3d
00000020: 37eb 95be ceab 07bf 1a90 7dbb 5fa1 f5bd
00000030: 5a1c f7be 9c86 213e 3e50 063e 1468 28bf
00000040: f1c3 303e 6228 d23e eb27 e43e 2c81 9a3e
00000050: 49b9 933e 6027 e03d fd30 f831 0cf8 88be
00000060: c69b 77bc 05d8 e63d 4289 c13c 46c7 dc3e
00000070: 616b 2134 32cf 1f3f 1bf8 73be 0cce 0b3d
00000080: 20f6 3e3d ef7b 15bf 5b95 083e 5a4b 49bd
00000090: 3371 c039 05b4 2bbe f092 92bd b7eb a73e
000000a0: 05c9 7dbd b380 a83e 6eb2 c5be f992 23bf
000000b0: 0686 5ebd 946f f0be cf15 833c ed41 fdbe
000000c0: 4f63 a1be cc5a ad3e 45e1 263e 0399 0d3f
000000d0: 63e0 023d d7e0 5abd b622 8bbe d700 cd3c
000000e0: e553 303d cc97 1a3f 13e0 96be 7c62 873d
000000f0: 604e 42bb 3472 cebe d17d c8bb 24ec c23e
00000100: f052 00bf 8d92 b03b b3c8 acbe 81d0 ceb1
00000110: 9b5d f8ba 293c e4bd ad99 573e 66aa c3be
00000120: b087 20bd 569f 21bf c7f2 ab39 9007 163f
00000130: f4df 34bd 4bf3 28bf 97ff dbb7 a78b c43e
00000140: 08a7 61bc c1d2 be3e 65bd 623e d45f 273f
00000150: 722a efbe 60f4 9e3e 705f 2d3e 184c a0be
00000160: 3b2f 153e c6b0 29bf 27e6 ef3e 10f7 e43c
00000170: a94f 2a3b d863 55bb ea46 05bb bb01 743e
00000180: 249c b53e 3219 28bf 2da7 853e 4bae debe
00000190: 44d1 b5bc 561b aebd a659 1f3d a560 143f
000001a0: 9f22 033f d309 a3be d093 ebbe a90a c43e
000001b0: f469 39bd 3bdd 9537 63a4 d0bd 1dac bbbe
000001c0: af90 272f b452 27b7 eaf2 cabe f8c2 13bf
000001d0: d839 fcbd 8169 e0bd d1bf a3be f2cd 45bd
000001e0: a8d2 2cbe 31fa ee3c dde4 b93e 9c14 0b3f
000001f0: 12b1 cb3d 96cb 6a3d 1076 333e c341 80be
00000200: cb63 86be 387a 183f 6d2e bc3e f046 28bf
00000210: 66d9 353e 8bc3 813e 11f1 7cbd 2ab9 07bf
00000220: c2b2 e23b d9b2 963e 2b9b adb7 cf3d e2be
00000230: 3b69 fcbd d774 58be d7e4 e43e cce9 92be
00000240: 600d dabe e952 053f 5e58 e8b7 6ebb 0bbf
00000250: 12a1 993e 02a1 f63e f606 753c 5d6f 2b3f
00000260: 487d df3e 2ff6 5a3c 86fc 9db3 6762 cf32
00000270: 346f dc3d cf03 26bf a142 2f3e 8418 133f
00000280: 7888 eb3a 2f4b 9e3e bce3 babe c923 cebe
00000290: 5e22 633e 4f3b d03e d422 82be bf09 2abf
000002a0: 34ed 093e 5e46 a83c b718 8136 736d 6f3e
000002b0: f76d 0dbe 40d5 90be 640c 603e 60a5 9cbd
000002c0: 8661 c238 fdea 163f 60ed 2abe a30a 0fb3
000002d0: 36f5 a73e ae9b 83be 97fa 3bba 7c4f 213c
000002e0: 363f b7b5 83e8 10be 05d4 95be e6a2 58b7
000002f0: 9670 86be a311 32bf f7fe dfbe 0c09 dabe
00000300: b7e5 8f3e 94dc f4be 9477 4f3c c2bf 3dbe
00000310: 0b66 8c3e b283 90be 5a69 013e ba5a 4abe
0.38636637 0.32314375 -0.35757452 0.1847924 -0.21483655 -0.634924 0.015856123 0.109090894
-0.29281017 -0.5299653 -0.0038690628 -0.1199367 -0.48263818 0.15774006 0.13116547 -0.6578381
0.17262246 0.41046435 0.44561705 0.30176675 0.288523 0.1094501 7.2233193e-09 -0.26751745
-0.015112823 0.11271671 0.02362502 0.43120784 1.5033358e-07 0.6242553 -0.23825113 0.03413205
0.04662144 -0.5839223 0.13338225 -0.049144126 0.00036705434 -0.16767891 -0.07156932 0.32797024
-0.061959285 0.3291069 -0.38612694 -0.6389614 -0.054327033 -0.46960127 0.01600161 -0.4946436
-0.3152108 0.33858335 0.16296871 0.553116 0.031952273 -0.05343708 -0.2717492 0.025024815
0.043048758 0.60387874 -0.2946783 0.06610581 -0.0029648766 -0.40321505 -0.006118514 0.38070786
-0.5012655 0.005388564 -0.3374687 -6.0190932e-09 -0.0018948795 -0.11144287 0.21054716 -0.3821594
-0.0391919 -0.6313375 0.00032796545 0.5860529 -0.04415889 -0.65996236 -2.6225853e-05 0.38387796
-0.0137727335 0.37270167 0.22142561 0.653806 -0.4671207 0.31045818 0.16930938 -0.31308055
0.14568798 -0.6628536 0.4685528 0.02794984 0.0025987423 -0.0032560732 -0.0020336458 0.23828785
0.35470688 -0.65663445 0.26104107 -0.4349235 -0.022194512 -0.08501308 0.038903855 0.5795997
0.512247 -0.31843433 -0.4601121 0.38289383 -0.04526706 1.7865203e-05 -0.10187604 -0.3665475
1.5239963e-10 -9.9732315e-06 -0.39638454 -0.57719374 -0.1231572 -0.10957623 -0.31982282 -0.048292108
-0.16877234 0.029172035 0.3630742 0.5432832 0.09945883 0.05732306 0.17525506 -0.25050172
-0.2624801 0.5956149 0.3675417 -0.6573324 0.17758712 0.253445 -0.061753336 -0.5301691
0.0069182822 0.29433325 -2.0695463e-05 -0.4418778 -0.123247586 -0.21138321 0.4470584 -0.28693998
-0.4258833 0.52079636 -2.7697704e-05 -0.5458287 0.300057 0.48169714 0.014955273 0.669668
0.4365027 0.013364359 -7.356816e-08 2.414272e-08 0.10763398 -0.6484956 0.1711526 0.5745928
0.0017969748 0.30916736 -0.36501873 -0.40261677 0.22181079 0.4067025 -0.25417197 -0.6642112
0.13469392 0.020541366 3.847377e-06 0.23381595 -0.1381148 -0.28287697 0.21879727 -0.0764873
9.268806e-05 0.58952314 -0.16692114 -3.3304456e-08 0.3280427 -0.25704712 -0.00071708247 0.009845611
-1.3652959e-06 -0.14151196 -0.2926332 -1.2912531e-05 -0.2625777 -0.6955816 -0.4374921 -0.42585027
0.28104946 -0.47824538 0.012662787 -0.18530181 0.27421603 -0.28225476 0.12637845 -0.19761172

net.2.net_input.bias f4 [100]
00000000: 4d99 97be 6b5f 693e ff34 0fbd d5fa 283f
00000010: adb9 d73e 9056 5fbe f3a9 ee3d b4e3 20be
00000020: a36d 1e3e b7e0 5d3c 9334 dcbd f25b bebe
00000030: 3781 0c3f 1ead d9be e850 2abf d639 b1be
00000040: d025 d43e 7b42 eb3e 5bd1 2c3f 7ed0 a1be
00000050: 5455 e1bd d921 17bf 2862 cdbe 3cf1 de3e
00000060: d2a5 f03e f4db 23bf dd8c f6bd b8f7 8cbe
00000070: 5904 d3bd c30a 123f 4afe 5abe 77cb cdbd
00000080: 3089 adbe d20d 69b8 c628 983e 6d40 1e3e
00000090: cd36 0fbf 0753 10bf 448c d4be ab16 0c3f
000000a0: 881e d639 a122 333f 6e7b 0fbf 43af 963e
000000b0: 2c4f 553d 6b74 623d 9cee 97be 7fa7 1ebf
000000c0: 2173 c4be d43c 253f ec5e 193f 8dac 053f
000000d0: 8d5e 51be f3df 0d3f ffdd 7cbe 57a1 343f
000000e0: cee4 87be 3f91 9c3d 673f 523e 54be a03e
000000f0: 1204 363f 7494 af3e 0f46 ddbd 9dc5 19bf
00000100: de68 4cbe b7b2 dc3e 2d70 a0be c7e7 18bf
00000110: b909 90be 8fce 973e 18e7 02be 1bc5 07be
00000120: 4942 db3e 9e2c 083f 2910 7fbe 1bda 0f3d
00000130: ae97 093f 22db 6abe 20eb 893e eb2f b6be
00000140: 9f42 223f 5370 0fbf e4e5 f33d 69a1 f93e
00000150: 3211 b9be 5f6d 7d3e 01b1 9bbe e8ea 143f
00000160: 71a5 2bbf 173a 1bbe 350b 21bd ea63 093e
00000170: 9f93 b13e 24ab 18bd 07bd ccbe dafe 073f
00000180: 26ba e73e a04c 143f 6c13 2fbf 1ec0 453e
-0.29609147 0.22790305 -0.03496265 0.6600774 0.42133847 -0.21810365 0.11653509 -0.15711862
0.1547151 0.013542346 -0.10752215 -0.37179524 0.54884666 -0.4251489 -0.66529703 -0.34614438
0.414351 0.45949158 0.6750695 -0.3160438 -0.11002603 -0.5903602 -0.4011395 0.43543422
0.4700151 -0.64007497 -0.12038586 -0.27532744 -0.103035636 0.5704767 -0.21386066 -0.100485735
-0.33893728 -5.55644e-05 0.29718608 0.15454264 -0.55942994 -0.5637669 -0.41513264 0.5472209
0.00040840008 0.69974715 -0.56047714 0.2943059 0.052077457 0.055286806 -0.29674232 -0.6197433
-0.38369086 0.6454594 0.59910464 0.52216417 -0.20446225 0.55419844 -0.2469406 0.70558685
-0.26541752 0.07644891 0.20531999 0.3139521 0.7109996 0.34292948 -0.10804378 -0.6006716
-0.19961879 0.431051 -0.31335583 -0.59728664 -0.28132418 0.2964978 -0.12783468 -0.13258784
0.4282401 0.5319308 -0.24908508 0.03512011 0.5374707 -0.22935155 0.269372 -0.35583434
0.63382906 -0.5603077 0.119090825 0.4875596 -0.3614593 0.24748753 -0.3040848 0.5817094
-0.6704932 -0.15158878 -0.03931733 0.1341702 0.34682938 -0.037272587 -0.39987966 0.5312325
0.45259207 0.5792942 -0.6838901 0.19311568

net.2.net_input.mask f4 [100, 2]
00000000: 0000 0000 0000 803f 0000 0000 0000 803f
00000010: 0000 0000 0000 803f 0000 0000 0000 803f
00000020: 0000 0000 0000 803f 0000 0000 0000 803f
00000030: 0000 0000 0000 803f 0000 0000 0000 803f
00000040: 0000 0000 0000 803f 0000 0000 0000 803f
00000050: 0000 0000 0000 803f 0000 0000 0000 803f
00000060: 0000 0000 0000 803f 0000 0000 0000 803f
00000070: 0000 0000 0000 803f 0000 0000 0000 803f
00000080: 0000 0000 0000 803f 0000 0000 0000 803f
00000090: 0000 0000 0000 803f 0000 0000 0000 803f
000000a0: 0000 0000 0000 803f 0000 0000 0000 803f
000000b0: 0000 0000 0000 803f 0000 0000 0000 803f
000000c0: 0000 0000 0000 803f 0000 0000 0000 803f
000000d0: 0000 0000 0000 803f 0000 0000 0000 803f
000000e0: 0000 0000 0000 803f 0000 0000 0000 803f
000000f0: 0000 0000 0000 803f 0000 0000 0000 803f
00000100: 0000 0000 0000 803f 0000 0000 0000 803f
00000110: 0000 0000 0000 803f 0000 0000 0000 803f
00000120: 0000 0000 0000 803f 0000 0000 0000 803f
00000130: 0000 0000 0000 803f 0000 0000 0000 803f
00000140: 0000 0000 0000 803f 0000 0000 0000 803f
00000150: 0000 0000 0000 803f 0000 0000 0000 803f
00000160: 0000 0000 0000 803f 0000 0000 0000 803f
00000170: 0000 0000 0000 803f 0000 0000 0000 803f
00000180: 0000 0000 0000 803f 0000 0000 0000 803f
00000190: 0000 0000 0000 803f 0000 0000 0000 803f
000001a0: 0000 0000 0000 803f 0000 0000 0000 803f
000001b0: 0000 0000 0000 803f 0000 0000 0000 803f
000001c0: 0000 0000 0000 803f 0000 0000 0000 803f
000001d0: 0000 0000 0000 803f 0000 0000 0000 803f
000001e0: 0000 0000 0000 803f 0000 0000 0000 803f
000001f0: 0000 0000 0000 803f 0000 0000 0000 803f
00000200: 0000 0000 0000 803f 0000 0000 0000 803f
00000210: 0000 0000 0000 803f 0000 0000 0000 803f
00000220: 0000 0000 0000 803f 0000 0000 0000 803f
00000230: 0000 0000 0000 803f 0000 0000 0000 803f
00000240: 0000 0000 0000 803f 0000 0000 0000 803f
00000250: 0000 0000 0000 803f 0000 0000 0000 803f
00000260: 0000 0000 0000 803f 0000 0000 0000 803f
00000270: 0000 0000 0000 803f 0000 0000 0000 803f
00000280: 0000 0000 0000 803f 0000 0000 0000 803f
00000290: 0000 0000 0000 803f 0000 0000 0000 803f
000002a0: 0000 0000 0000 803f 0000 0000 0000 803f
000002b0: 0000 0000 0000 803f 0000 0000 0000 803f
000002c0: 0000 0000 0000 803f 0000 0000 0000 803f
000002d0: 0000 0000 0000 803f 0000 0000 0000 803f
000002e0: 0000 0000 0000 803f 0000 0000 0000 803f
000002f0: 0000 0000 0000 803f 0000 0000 0000 803f
00000300: 0000 0000 0000 803f 0000 0000 0000 803f
00000310: 0000 0000 0000 803f 0000 0000 0000 803f
0.0 1.0 0.0 1.0 0.0 1.0 0.0 1.0
0.0 1.0 0.0 1.0 0.0 1.0 0.0 1.0
0.0 1.0 0.0 1.0 0.0 1.0 0.0 1.0
0.0 1.0 0.0 1.0 0.0 1.0 0.0 1.0
0.0 1.0 0.0 1.0 0.0 1.0 0.0 1.0
0.0 1.0 0.0 1.0 0.0 1.0 0.0 1.0
0.0 1.0 0.0 1.0 0.0 1.0 0.0 1.0
0.0 1.0 0.0 1.0 0.0 1.0 0.0 1.0
0.0 1.0 0.0 1.0 0.0 1.0 0.0 1.0
0.0 1.0 0.0 1.0 0.0 1.0 0.0 1.0
0.0 1.0 0.0 1.0 0.0 1.0 0.0 1.0
0.0 1.0 0.0 1.0 0.0 1.0 0.0 1.0
0.0 1.0 0.0 1.0 0.0 1.0 0.0 1.0
0.0 1.0 0.0 1.0 0.0 1.0 0.0 1.0
0.0 1.0 0.0 1.0 0.0 1.0 0.0 1.0
0.0 1.0 0.0 1.0 0.0 1.0 0.0 1.0
0.0 1.0 0.0 1.0 0.0 1.0 0.0 1.0
0.0 1.0 0.0 1.0 0.0 1.0 0.0 1.0
0.0 1.0 0.0 1.0 0.0 1.0 0.0 1.0
0.0 1.0 0.0 1.0 0.0 1.0 0.0 1.0
0.0 1.0 0.0 1.0 0.0 1.0 0.0 1.0
0.0 1.0 0.0 1.0 0.0 1.0 0.0 1.0
0.0 1.0 0.0 1.0 0.0 1.0 0.0 1.0
0.0 1.0 0.0 1.0 0.0 1.0 0.0 1.0
0.0 1.0 0.0 1.0 0.0 1.0 0.0 1.0
